02-Data-Driven Physical Saddle Point Modeling (CBN-BPNN)/CBN_BPNN_model_weights_cond_mul3.pth (torch, 53055 bytes, 10 tensors)

condition_proj.0.weight f4 [5, 3]
00000000: 4c2b dc3e 958b 7cbe 0987 603e 8499 86bd
00000010: 6794 e43e 75ba f83e df91 0abe e95b e5bd
00000020: dc55 c23e f216 873d d649 2f3e 6307 9d3d
00000030: 424b cdbe 3a41 0c3e b30d a8be
0.43001783 -0.24662621 0.21926512 -0.065722495 0.44644472 0.48579755 -0.13532208 -0.11199171
0.3795613 0.06596173 0.1711801 0.076674245 -0.4009648 0.13696757 -0.32822952

condition_proj.0.bias f4 [5]
00000000: 5b17 ba3e e4fc c1bb 85d9 193f 635a 923d
00000010: d6c1 da3d
0.36345944 -0.0059200395 0.60097533 0.07146146 0.106815025

backbone.0.weight f4 [128, 13]
00000000: bef7 44be c9d7 91bd cfab dbbe c4fc 7dbd
00000010: 93e9 94bd fa03 433e a3e4 6d3e 3fec 803d
00000020: 59c8 5d3e c5bb 4e3e 5ef4 1abe 9a66 3bbe
00000030: a27c 8f3e 10c9 41bc 3515 793e 9e48 c93e
00000040: 2694 a9bd 397b d33d 26f7 513e 4121 c8bc
00000050: ff0c afbb 0b53 433e 8218 b0bb a9a2 a0bd
00000060: b9b9 e7bd b127 403c 5b16 bebe f880 7e3e
00000070: 768a 103e 3877 78bd a4f1 74be 244d 0abe
00000080: f3f9 ffbd f8b7 1abe 5d23 33be 0609 09be
00000090: 7ac0 25be 7aae 663e d63e 77be 64cc a2bd
000000a0: 4824 6bbd 44c7 2fbe 6167 58be c240 623e
000000b0: 2516 1abd 6f71 6abc 7972 40be b37c 203e
000000c0: 4969 23be 4736 0e3e f1d9 143e 85db 463e
000000d0: 3f3e 483d 7879 08bc 3d22 963e cbe9 3cbe
000000e0: c46d 693d 1786 6bb8 8418 3a3d 09bc 5dbe
000000f0: c8e6 85bd a9b5 653e 82a3 72be 8c0c 743e
00000100: e22c 91be 49b6 b13e 2529 813e 4e02 a83c
00000110: 4407 373e dbd2 97be c5a2 5c3d 2512 9cbe
00000120: 2a04 f9bd b7b1 5ebe 1efb 24bc e957 a63d
00000130: 5392 9e3d 4f54 1d3d fd67 013e a9a3 9fbe
00000140: cf93 a8be a31a 8e3d 227f 76be f1b7 323e
00000150: 8f99 7c3e 7556 543d 5f9d 96bd 9a26 f93d
00000160: b427 59be be84 b7bd b6fb 6dbe 5e2f b9be
00000170: 8381 c0bd 1c44 423d d821 803d 9dda 98be
00000180: 2636 f4bd 99d8 25be a34f 07be 7483 543e
00000190: e073 1bbe df65 2abc d493 ed3d 4227 90bd
000001a0: 322a 4e3e 9c29 333d ebdb b0be 40b6 6ebe
000001b0: 45ce 693d 7c5a 833d 0fe3 c9bd 42ac cd3d
000001c0: 9599 1abe a629 703e c467 54bd e930 433d
000001d0: f0dc b5bd 3095 2b3e 0067 79be 6384 b4be
000001e0: 62e1 113e cf01 b5bd 069e c43c 99a0 3e3e
000001f0: 7fbd 603c d419 b4bd d10f 11bd f901 273e
00000200: a569 0f3e 6114 7d3c a653 bbbe 649a 48be
00000210: 9a0f d9bb 810b e0bd b551 6f3e 29a5 2d3d
00000220: d0aa 39be 2604 22be 2bb2 9ebe 3b0a eebd
00000230: 32db bbbd ba11 41be f411 6cbd 02e8 52be
00000240: 7b5a 403e c721 bf3e e79c dabd 5040 0e3e
00000250: 35a0 e03d 0819 f63d bfaa 4fbe 3200 333e
00000260: bff0 23be dac0 363d dc11 cabd 92b2 57bd
00000270: ba12 c53d b4fa a73d 6c3a 7cbc 313a 49bb
00000280: f815 6e3e 2928 913e ad43 64be 2ae5 3ebe
00000290: 6c6f 59be 8264 9dbb 8a68 d1bd 8bd1 433c
000002a0: 5ed5 bdbd 2de2 7c3e 75f6 7dbe d668 f83b
000002b0: b33a 9b3c 1e6a 383d 424a cebd 67d3 24be
000002c0: 7215 5b3e f02e adbc fc1d 40be 13a5 853e
000002d0: 324a 7abd bac6 7bbe 3115 2ebe a79a 2e3d
000002e0: 790a e6be 6737 6ebc e880 463e 631e 013e
000002f0: 4bdd f3bc 9d45 873d 0e14 00bb c985 c63d
00000300: 7251 21be d2e7 213b 561f 92bd c792 afbe
00000310: 0f71 f53d 4b7b 82bd 1069 683e e5ae 863e
00000320: 5afe 2e3d d7aa 5bbd 9a21 8cbe 8640 373e
00000330: 2acd c9bd 9285 6c3b 7ab8 a2bc ffbc 4cbe
00000340: 5d83 fa3d 5fac 3d3e 0c61 afbc 2108 d33d
00000350: c9c9 703e 09d0 29be 77cc 363e 9c3b 5bbd
00000360: 8aa4 e73c 1699 57bc a3e5 fabc 99ec 243e
00000370: c9bb d33c 3dca 833d 765c b93e b2f3 b13e
00000380: 0359 01be 3254 c43d 8f52 193e 7af2 7b3c
00000390: abfd 153e f8da ca3d a042 4a3e b345 36be
000003a0: 2ae2 1fbe 5310 88be 8767 213d 1c86 a73e
000003b0: 5639 023e da57 443d 1356 693d 719d 8a3e
000003c0: 4477 cabd da1b 423e 700a 533e 21b6 97bd
000003d0: 5cf9 93be e725 5d3e d2aa a73d 7255 45bd
000003e0: 1866 a93e dbf2 d13d 85e0 53be 5ce5 83bc
000003f0: f6b7 7e3e 52d5 003e 04c3 3fbe c896 443e
-0.19235131 -0.07121236 -0.42904517 -0.062008634 -0.07271113 0.19044486 0.23231749 0.0629506
0.21658458 0.20188816 -0.15132281 -0.18300858 0.28024775 -0.011827722 0.24324496 0.39313215
-0.0828021 0.10326237 0.20504436 -0.02442992 -0.0053421254 0.19074647 -0.0053740153 -0.07843525
-0.11314721 0.011728213 -0.3712643 0.24853885 0.14115319 -0.06066057 -0.23920304 -0.1350599
-0.12498846 -0.15109241 -0.17493959 -0.13382348 -0.16186705 0.22527495 -0.24145064 -0.07949141
-0.057407647 -0.17165858 -0.21133186 0.22095016 -0.037618775 -0.014309271 -0.18793668 0.15672569
-0.15958132 0.13887893 0.14536263 0.19419678 0.048887488 -0.008329742 0.29322997 -0.1844856
0.056989446 -5.6153247e-05 0.045433536 -0.21653761 -0.06538159 0.22432579 -0.23695186 0.23832911
-0.28354555 0.34709385 0.25226703 0.020508911 0.17873865 -0.29653057 0.053866167 -0.30482593
-0.12158997 -0.2174748 -0.010069637 0.08122236 0.07742753 0.03841048 0.12637325 -0.3117955
-0.3292527 0.06938674 -0.24071935 0.1745298 0.24667953 0.051840264 -0.07354235 0.12165566
-0.21206552 -0.089608654 -0.23240551 -0.3616895 -0.093997024 0.047428235 0.06256455 -0.2985429
-0.119243905 -0.16195907 -0.13213973 0.2075327 -0.15180922 -0.0104002645 0.116004616 -0.07038738
0.20133284 0.043740854 -0.34542784 -0.2331171 0.05708148 0.06413743 -0.09857761 0.10042621
-0.1509765 0.23453388 -0.05185677 0.047654066 -0.08880031 0.1675613 -0.24355698 -0.35257253
0.14246133 -0.088382356 0.024001133 0.1861595 0.013717054 -0.08793989 -0.035415474 0.16309346
0.14005144 0.015446753 -0.36587256 -0.19590145 -0.0066241743 -0.10939694 0.23371013 0.042393837
-0.18131566 -0.15821895 -0.30995306 -0.11623045 -0.091726676 -0.18854418 -0.05763431 -0.20596316
0.18784516 0.37330458 -0.10674458 0.13891721 0.10968057 0.12016493 -0.20279978 0.17480543
-0.16009806 0.04461751 -0.09866688 -0.052660532 0.096227124 0.08202115 -0.015394788 -0.003070485
0.23250568 0.28350952 -0.22291441 -0.18642107 -0.2123391 -0.004803241 -0.10225017 0.011951814
-0.09269212 0.24695654 -0.24801047 0.007580857 0.018948888 0.045023076 -0.10072757 -0.16096269
0.213949 -0.021140546 -0.18761438 0.26102504 -0.061105914 -0.24587527 -0.17000271 0.042627957
-0.44929865 -0.014539576 0.19385111 0.12609248 -0.029768607 0.066050746 -0.0019543204 0.09693486
-0.15753725 0.0024704826 -0.07134883 -0.3429167 0.11984455 -0.063711725 0.22696328 0.2630531
0.042723037 -0.053629722 -0.27369386 0.17895707 -0.09853585 0.0036090356 -0.019863356 -0.19993971
0.12232087 0.18522786 -0.02140858 0.10304285 0.23514475 -0.16583265 0.17851435 -0.053523645
0.0282767 -0.013159057 -0.030627077 0.1610588 0.025846379 0.06435058 0.36203355 0.34756237
-0.12631612 0.095863715 0.149729 0.015377635 0.14647548 0.09905046 0.19751978 -0.17800026
-0.15613618 -0.26574954 0.039405372 0.32719505 0.12717184 0.047935344 0.056966852 0.27073243
-0.09886029 0.18955937 0.2060945 -0.07407785 -0.28901184 0.2159649 0.08186878 -0.04817719
0.33085704 0.10251399 -0.20691116 -0.016100578 0.24874863 0.12581375 -0.18726736 0.19198143

backbone.0.bias f4 [128]
00000000: a05d 36be 34fb b03d 6f80 383e 3167 243e
00000010: 1d93 d0bd 7ec2 56be c357 8ebd 807e a73d
00000020: eaf7 5b3d f0f0 34be 8cc1 fc3c cc48 773e
00000030: 1132 b7bb f69c 27be 2dbe 1fbe 42cc f0bd
00000040: 6e8b 31be 114a 63be c833 613e a6be 5dbe
00000050: 5bba 1cbd e141 723e 1381 cc3d 9ab7 da3d
00000060: 30f6 c93d 08c5 733e cff8 393e 8c53 8b3d
00000070: 813a adbd e7ca 05be d66a 3d3d ab16 d13d
00000080: 6bfd 09be af63 b5bd 5d22 22bd 95fb 083e
00000090: 1044 d0bd 931f 59be 4d86 013e 7c2a 3bbe
000000a0: 1280 563e f5bd 883e 9516 44bd a749 cabc
000000b0: d8bc 883d 82ad 303e d0c2 863e d108 9ebc
000000c0: 63d9 f33d e6e1 933e 050c a6bb d50f 8d3e
000000d0: 96e7 313e 0d01 c1bc 9f99 49be addf 273e
000000e0: d327 d13d 621f 3f3e ec47 e6bc 2d33 2e3e
000000f0: 56cf 30be 82e0 023e 903b 553e 041c 913b
00000100: 53ad 393b 24ee 53be 04cc 07be 9a2e cbbd
00000110: f8f8 2cbc 6cdb c03d a8b1 b93d b6ba 1f3e
00000120: 8869 d8bd ea52 2c3d cfa9 e3bc 000e 45be
00000130: 3ec8 91bd cd82 3a3e 0ebd 753d eec0 a6bd
00000140: 83c6 15be 2081 38be 2732 aa3c 796d e43d
00000150: 1589 69bd f31d bf3d 12de 293e 5fa0 77be
00000160: 263a 4cbd 8d1f b73d 70fd 203c 1129 60be
00000170: 6505 c8bd 8c14 663e 5341 0abd c948 cf3c
00000180: acf1 f4bd b80d 0cbe 5697 abbd f301 00be
00000190: 34f0 9b3c c808 1fbe 6c9e b4bd e57d 46be
000001a0: 93a9 0cbe 657b 183e f252 63bd 38fa 4c3e
000001b0: 2252 df3d 014f 1bbe ae3d 913d ca0b 3bbe
000001c0: bf8c 7a3d 8723 4d3c dcdf 07bd 2192 b1ba
000001d0: cef1 cc3d b823 1e3e a38d a53d a740 703e
000001e0: 817c 1c3e ced3 323b 679f a93d dcfa 44be
000001f0: ef4e 273b 5f15 603e 5ba3 913e ae1f 0ebe
-0.17809153 0.08641663 0.18017744 0.1605499 -0.1018431 -0.2097263 -0.06950333 0.08178425
0.053703226 -0.17670035 0.03085401 0.24148864 -0.005590685 -0.1636847 -0.1559989 -0.11757709
-0.17338344 -0.22196223 0.21992409 -0.21654758 -0.03826366 0.23657943 0.099855565 0.106795505
0.0986141 0.2380563 0.18161319 0.06803045 -0.08458424 -0.13065682 0.046244465 0.10209402
-0.13475578 -0.08856904 -0.039583553 0.13377221 -0.10169232 -0.21203451 0.12648888 -0.18277925
0.20947292 0.26707426 -0.0478731 -0.024693323 0.06676644 0.17253688 0.26320505 -0.019291313
0.119066976 0.28883284 -0.005067351 0.2755114 0.173735 -0.023560071 -0.19687508 0.1639392
0.10212674 0.18664315 -0.028110467 0.1701171 -0.17266592 0.12780955 0.20823503 0.0044283886
0.002833207 -0.20696312 -0.1326142 -0.09920998 -0.010557406 0.094168514 0.09067088 0.15598568
-0.105670035 0.04207126 -0.027790932 -0.19243622 -0.07118271 0.18213959 0.05999475 -0.08142267
-0.14626507 -0.18018007 0.020775868 0.11153693 -0.057015497 0.09331884 0.1658862 -0.2418227
-0.049860142 0.08941565 0.009826049 -0.21890666 -0.09766654 0.22468776 -0.033753704 0.025303261
-0.11960158 -0.13677108 -0.083784744 -0.12500744 0.019035436 -0.15530694 -0.08819279 -0.19383962
-0.13736562 0.14890821 -0.055499025 0.20017326 0.109043375 -0.15166856 0.070918426 -0.18266216
0.061169382 0.012520677 -0.033172473 -0.0013547578 0.10007058 0.15443313 0.08083656 0.23462163
0.1528187 0.002728689 0.08282357 -0.1923632 0.0025529226 0.21883152 0.28444943 -0.13879272

backbone.3.weight f4 [64, 128]
00000000: 1b5b c5bd 014e 07bd 1e4a e8bc dfc8 113c
00000010: ff31 683d 3bf7 1a3d 4436 71bc 291c aebd
00000020: 57f3 b93d 2176 db3d 2402 e73d 6e90 263c
00000030: a215 973d 8f91 8e3d 544c 93bd 71f8 983c
00000040: 2990 083c 8f13 1e3c d267 d5bd 5c41 d63b
00000050: 7e51 3ebd 4800 913d 0e6b 503d a9a3 263d
00000060: 74ad bcbd 4bcb 5abd 8299 8abd 0934 fd3d
00000070: 8a5c 99bc c3b4 c13d 0dac 1c3d b01d 70bd
00000080: d5d7 8e3d 2562 eabc 04e7 25bc e417 753c
00000090: 224a c03c 796a 05be d4ed 553c ed0b 03bd
000000a0: 3ffe 3cbd 239d 39bd fbfe e83c d006 59bd
000000b0: 5b50 77bd 2bfd d03d 6f90 4bbc 19ff 40bd
000000c0: 19db 383d b54e 093d 3976 a63c 872c a7bd
000000d0: 9c06 16bc fe45 9a3d 604a b03d 0bb4 a63d
000000e0: 416c 123c 3b1b 953d d75f 7abd 01e1 25bb
000000f0: 8b35 1bbc 7941 94bd 6674 b33d 19f6 98bc
00000100: 3945 35bc 1a2e cfbd 5975 a5bc 0e14 ccbc
00000110: e10f 6d3c 41de a03d 0818 313d 09c6 a63c
00000120: a4a7 093d 5892 a0bd 24a0 09bd 9abf 86bd
00000130: 28df 59bd 694e 2dbd a6f2 2fbd c460 713b
00000140: 5b34 103d 9fef bebb e9ba 423d 3136 c5bd
00000150: a71b 713d 2755 45bd e7d5 5cbd f50c 843d
00000160: 55b7 c93b 6790 b83c 8f29 3e3b 113f 2bbd
00000170: 9976 62bd 4e28 f9bc 5412 b03c 748b f93c
00000180: 428c 67bd fd96 adbd c5d9 d33d 8b9b 543b
00000190: bb3a c23d fa42 0abe 9a55 11bd efbe e2bc
000001a0: e26a f6bc 71ab 943c 49a0 91bd 20b5 0c3b
000001b0: fdd5 64bd ae8e fa3c a085 023e 5ea1 9dbc
000001c0: 0547 433d ff2e 0bbe c466 583d 659a 983c
000001d0: 1a8b 943d 3de3 9dbc 28fe ffbc 9bc4 263d
000001e0: 20f2 d33d b3fd 1fbe 96d1 6a3d bd9b eabc
000001f0: 6cb3 0cbd 5e7c 993c 08ae aabb d1c2 8e3d
00000200: 8689 18bb 829b 6e3d 955f 23bc 03eb 05bd
00000210: ae68 2e3d 9708 803b ab69 9abd 2ab7 293d
00000220: 5391 14be 3354 e7bd 9710 263d b37a 8a3b
00000230: 7d00 603c fe6a 5dbd 95c6 aebc 6d7e 293c
00000240: 2420 6b3d 9315 b43d e496 d1bd cd0c ad3d
00000250: 1c8c c83c 23c2 8ebd c105 133d 73a9 65bd
00000260: 917b 503d f7a4 803d 0f77 903d 425a 093d
00000270: b959 cd3d 3dbb d53c d0c2 8c3d 9f34 d13d
00000280: e972 093e db85 143d 19d4 b0bd b53d bbbd
00000290: a774 be3c 9bc5 72bd 3a6f c13a 5d2e efbd
000002a0: cb2a ac3c 5aff 163d 895e debb 6a06 153c
000002b0: 9775 023e dd27 7f3d cd53 e03c f9be e3ba
000002c0: 0656 b33d ee9c 093c c08c 83bb 2588 30bd
000002d0: 50b8 78bd c656 fa3d 435b b2bd 8063 983d
000002e0: 3b96 abbc e3fd 1c3d 6144 e93c 14b3 793d
000002f0: d1a3 b03d 0c88 9abc c926 e1bb 2ef0 6b3d
00000300: ec7e 8d3d c465 673b 4c8e 0f3d 683b a33a
00000310: c53a 1f3d a9d0 54bd 9c01 c73c 790a 4bbd
00000320: a168 44bd c9de 353c ebb6 5ebc 4827 633d
00000330: b66c 3ebd a2b5 90bd eba3 d03d eccf 593d
00000340: da29 3abb 7f4e 4fbd bf8f ef3b b39d b83d
00000350: bc4c 9e3c cc53 7a3d bb18 793d 0a7a c8bc
00000360: 8608 2abc e37e 0ebd becf bd3c 1a2f 803c
00000370: cb0e 90bc fb86 d1bc 4adc 89bc 143b 1abd
00000380: 61e2 eabc 4f27 163d 3a7e a5bd f1e9 543d
00000390: c7c7 d83b d146 19bd c797 7ebd 2977 463c
000003a0: 9e93 fd3d fd99 72bd 22ad 00be b8ca 4c3d
000003b0: 12a1 0c3e ee15 c73d 970a aa3d 6c87 dd3d
000003c0: de9f a63d 312e d6bd 091e 03be 6407 20be
000003d0: 898b a8bd fdd7 a9bd 1736 923d b064 923d
000003e0: 38a9 43be 081f 84bd 569d 5dbc 9817 e0bc
000003f0: c995 183d 9795 edbc 1a1f 0abd 7b85 683d
-0.096365176 -0.033033375 -0.028355654 0.008897989 0.056688305 0.037833434 -0.014722411 -0.08501465
0.090796165 0.10715891 0.11279705 0.010166271 0.07377173 0.06961357 -0.07192293 0.018673154
0.008335152 0.009648218 -0.10420193 0.006538553 -0.046464436 0.07080132 0.050883345 0.040683422
-0.09212771 -0.05341653 -0.067675605 0.123634405 -0.018720884 0.09458306 0.038250018 -0.058622062
0.069747604 -0.028611252 -0.010125879 0.014959309 0.02347285 -0.13028897 0.013057191 -0.031993795
-0.046140905 -0.045315873 0.028441897 -0.052985013 -0.060379367 0.10204538 -0.012424572 -0.04711828
0.045130823 0.033522326 0.020320045 -0.0816279 -0.009156849 0.07532881 0.08607936 0.08139809
0.008936943 0.072805844 -0.061126556 -0.0025311115 -0.009473215 -0.072390504 0.087624356 -0.018672036
-0.011063867 -0.10116215 -0.020197557 -0.024911907 0.014469118 0.078548916 0.04323581 0.020358102
0.03360714 -0.07840413 -0.033599988 -0.06579514 -0.053191334 -0.042311106 -0.042956017 0.0036831358
0.03520618 -0.005826905 0.047541533 -0.09629477 0.058864262 -0.04817691 -0.05391493 0.06447784
0.006155888 0.022529794 0.002901647 -0.04180819 -0.055288885 -0.030414727 0.021493115 0.030462004
-0.056530245 -0.08476064 0.103442706 0.0032441344 0.09483858 -0.13502112 -0.035482027 -0.027678935
-0.030080263 0.018148156 -0.0711065 0.0021470264 -0.055868138 0.030585613 0.12746286 -0.019241985
0.04767515 -0.13592146 0.05283238 0.018628309 0.07253094 -0.019273395 -0.03124912 0.04071484
0.10348916 -0.15624122 0.057328783 -0.028638715 -0.034350798 0.01873606 -0.0052087344 0.06970752
-0.002327533 0.058253773 -0.009971519 -0.032694828 0.0425803 0.003907274 -0.07539686 0.041434444
-0.14508562 -0.112953566 0.040543165 0.0042260527 0.013671991 -0.054057114 -0.021334926 0.010345084
0.0574037 0.087931775 -0.10233858 0.08449707 0.024480872 -0.069706224 0.03589416 -0.056069802
0.050899092 0.062814645 0.070539586 0.033533342 0.10026879 0.026090259 0.06873095 0.10215115
0.13422741 0.036260467 -0.086342044 -0.09142629 0.023248984 -0.059270483 0.001475788 -0.11678765
0.021016499 0.036864616 -0.006786172 0.0090957675 0.1274017 0.062293876 0.02738371 -0.001737564
0.08756642 0.008399231 -0.0040145814 -0.043098588 -0.06072265 0.12223582 -0.08708813 0.07440853
-0.020945659 0.038328063 0.028474988 0.060961798 0.086249955 -0.0188637 -0.0068710786 0.0576021
0.06908974 0.003530846 0.035047814 0.0012453618 0.038874406 -0.051956806 0.02429276 -0.049570534
-0.047951344 0.011100479 -0.013593416 0.055457383 -0.046490394 -0.07065894 0.10187515 0.053176805
-0.0028406293 -0.05061197 0.007310837 0.09014454 0.0193237 0.06111507 0.0608146 -0.024472255
-0.010378009 -0.034788977 0.023170348 0.01564746 -0.017585179 -0.025577059 -0.016828675 -0.037653998
-0.028672399 0.03665858 -0.080807164 0.051980916 0.006615612 -0.03742105 -0.062156465 0.012113371
0.12381671 -0.059228886 -0.12566045 0.049998015 0.13733318 0.0972098 0.08302801 0.10816845
0.08135961 -0.10458029 -0.12804426 -0.1562782 -0.08229739 -0.082931496 0.07139223 0.07148111
-0.1910752 -0.06451231 -0.013526281 -0.027355 0.03725222 -0.029001994 -0.033721067 0.056767922

backbone.3.bias f4 [64]
00000000: 00c9 e9bb 2de7 43bb 6e76 063d 9ec7 6dbd
00000010: e632 55bd c210 8a3d 5164 083d 8d1c 6c3d
00000020: be5a ef3d 25e1 2c3d 8245 5dbd 282a 6b3d
00000030: 8583 f8bc 860e 86bd 2f0a b6bd e21b 553d
00000040: a5bb 583d fcaf 3f3d c924 57bd e583 70bb
00000050: fcf8 8e3d 9e3c b0bd b728 373d 4b1a 9abc
00000060: ef08 86bd c3fd 143d 0c8d 27bd e3d5 693c
00000070: 6091 123c c207 cc3d 8579 3cbd fad3 4c3d
00000080: 1fb8 3b3d 61eb 8cbc 531d 413c 7592 3f3d
00000090: 2fb7 c4bd 88e2 e23c bc57 993c 68d7 0fbd
000000a0: 4512 373d fec8 873d 3efe 683d 5ceb f7bc
000000b0: 5c88 a13d 7538 19bd c32d 123d f792 31bc
000000c0: 2a7d 8dbd 14af 63bd 594b 2d3d 032f a13d
000000d0: a18c bf3c 9983 653c 31dd bd3d 21b0 143d
000000e0: a001 86bd daab 69bd f69d 97bd 0d07 ba3b
000000f0: 490c 843d 8e18 d93c 5f99 33bd 6340 42bc
-0.007134557 -0.002989243 0.032827787 -0.058051698 -0.052050494 0.067414775 0.033298794 0.057644416
0.116872296 0.042206902 -0.054021366 0.05741325 -0.03033615 -0.06545739 -0.08888661 0.052028544
0.052913327 0.04679869 -0.052525315 -0.003669971 0.06981084 -0.08605312 0.044716563 -0.018811366
-0.06544673 0.03637482 -0.040905997 0.014272186 0.008945793 0.09962417 -0.046014328 0.050006844
0.04582989 -0.017202081 0.011786777 0.04677053 -0.09605252 0.02769591 0.018718593 -0.035117537
0.044695158 0.06630133 0.05688309 -0.030263595 0.078873366 -0.037407357 0.035688173 -0.010838262
-0.06908639 -0.05558689 0.042308185 0.07870295 0.023382487 0.014008426 0.092707045 0.036300782
-0.06543279 -0.057048656 -0.074031755 0.00567711 0.06447656 0.026500966 -0.043847438 -0.011856171

backbone.6.weight f4 [32, 64]
00000000: 9b72 fd3c da27 a23d 0797 ab3b f247 b3bd
00000010: 6b7d 93bd 168d de3c 7eff 023e d366 63bd
00000020: 3d5f 283d e79a 903d 2672 f73c 4067 cfbd
00000030: 4fca debb 94ff da3d fbe6 613d e4fc 27bd
00000040: 7d4e 323d ee62 7ebd c755 c23d c0c7 38bd
00000050: 3674 e13c 0f23 cbbd 0fd7 a33d efe7 26be
00000060: e35f 223d bb82 3fbe 8cef aa3b b4d4 94bd
00000070: 345e 023e 0a7d 63bd b249 063e 36f8 10bd
00000080: 7ff0 32be ca5f 843d 01ab c13d 351a 223e
00000090: 8023 ae3d 579b c8ba 2c53 1d3e 1532 e23d
000000a0: 2515 fc3d 2877 ebbc d260 5abd 48c0 4d3a
000000b0: c0d3 d1bd d894 4ebd b990 2cbe 9d67 543d
000000c0: 3b7e 083e 81e4 bb3d 1ccf db3d a88f 823d
000000d0: 20ec 0d3e 8c8b eabd 3961 72bc e075 e7bd
000000e0: e38a 503e 88aa 19bd b6c8 94bd c13e f9bc
000000f0: f34b 41be 5552 783d af6c 71bd 2aee e33d
00000100: cd93 403d d9ef 2c3e 36d0 243d 02df f83d
00000110: 1f2c e4bd ce74 553d c4bd b6bd 8d0b 83bd
00000120: ef3c f03d fb0f 153e 1db5 1cbe 921c e53d
00000130: 4bca b63c d6ab c7bc 4c24 7cbd 8348 82bd
00000140: 5881 dc3d 443c ff3d 3bfd 6d3d af02 e13c
00000150: 8d13 d9bb a2eb d63c 888d 95bc 8acd 9bbc
00000160: 2272 243c 3a8a afbd 2e65 903d 6af0 803d
00000170: 77d8 fbbd 8d9d 65bd ad45 e03d a1db 3abc
00000180: 0cea febb 01c6 893d e557 973d 8a1c 2dbd
00000190: 0074 b23d 6fa9 293d b1d9 2a3d a84c 93bc
000001a0: b349 84bd b786 013e 6672 88bd 05ab db3b
000001b0: 7586 a4bd 76ac fa3d 1c7a b23d 669d 86bd
000001c0: 6e4e 8d3c b895 68bd 8325 95bd b741 5c3d
000001d0: 8e5b 1abd 166a 163c 68f1 81bc 8790 f5bd
000001e0: 2210 423d f373 c63d 9d20 97bd 24b0 443d
000001f0: 7725 93bd 6595 a6bd 0235 1dbb 0fe0 9cbc
00000200: e899 893b 8c82 a0bd 1f8a a13d 6b28 71bd
00000210: 40ac 17be 2a36 3f3d 39d1 c53d cf8b 973d
00000220: ad7e f53b b8d2 b5bd 0743 cf3d be2c 43bc
00000230: 91e8 95bb 7afb aa3c d56a 0d3e 17ab 70bd
00000240: b084 a33d 1aca 283d bef0 013e b8df f7bb
00000250: 9f6f b4ba 9556 dd3a 9e07 5e3d 3aee 8d3d
00000260: cc25 213b f3a3 4ebe 2a7a 02bd 714b 21be
00000270: a3bc 943d 9d9f 043d f8e4 d1bd af50 86bd
00000280: 8857 1abe 4555 d7bd 3457 ab3d 71cc 0c3e
00000290: c312 c1bd 1888 c23d d83c 71bd aba7 4bbd
000002a0: 6554 d93d 9ce3 153e 0cca 8b3d 6631 e03c
000002b0: dbb2 02bd 560f 82bd 8422 a1bd 60d7 c33d
000002c0: 688a e03d ea31 c1bc 80cd 3d3d a3cc eebd
000002d0: 09ad d4bb be13 123d 3f6c e3bc 003d a83b
000002e0: d18e b33b 0fe0 efbd d578 18bd 3bcb b23d
000002f0: f2be bcbd d581 133d 6a23 28be 9345 1d3d
00000300: 1a1d 07be 8c3d 6dbd c2ba 70bd 153e edbc
00000310: fdac 07be db0f 86bd f965 983d fbc3 11bd
00000320: d2b7 9f3d 9347 3cbd 1f72 813d 15c9 01be
00000330: 9b1d e73d 5543 f73d 35ac e13d 860b b33d
00000340: 588d b13c 366d e9bc 8d1a 68bd 195e 52bd
00000350: 31d5 14ba 1679 903c 7804 8dbd 1283 ad3d
00000360: 93e5 88bd 7b78 98bd cd89 963c 1768 ae3d
00000370: cc12 ccbd e86e 533d ff57 d23c 79a4 7cbd
00000380: e25e 503c fbaf 07be 8957 043e c3ad 07bd
00000390: a0d2 76bb b854 e33d 891e 6bbd c59b eabd
000003a0: 7b3f 003e 9694 6d3d eb8f 07be b75b c93d
000003b0: edef 763c 455d 8d3d 2964 32be cd42 8cbd
000003c0: f411 493d 6b98 01be 7f97 cdbd a0f6 e4bd
000003d0: 694d f03d d0d7 20bd 4004 f33d f170 3a3c
000003e0: cbcd c7bc 1c22 23be c0e7 ab3d fd1a 82bd
000003f0: bf30 01be bcc4 0dbc 74b2 08be f569 f2bb
0.030938437 0.07917757 0.0052365097 -0.08753957 -0.07201656 0.027166884 0.12792775 -0.055517983
0.04110645 0.07060795 0.030205797 -0.10127115 -0.0067990194 0.10693279 0.05515192 -0.04101266
0.043531884 -0.062106065 0.09489017 -0.04511237 0.027521234 -0.09918796 0.080000035 -0.16299413
0.039642226 -0.18702213 0.0052165445 -0.072671324 0.12731248 -0.05553917 0.1311405 -0.035392962
-0.17474554 0.06463583 0.094564445 0.1583031 0.08502865 -0.0015305084 0.15363759 0.11044709
0.123087205 -0.028743342 -0.05331499 0.00078487815 -0.10245466 -0.050434917 -0.16852082 0.051856626
0.13329403 0.09174443 0.10732862 0.063750565 0.13859606 -0.11452398 -0.0147936875 -0.1130178
0.20365481 -0.037516147 -0.07264845 -0.030425431 -0.18876629 0.060625393 -0.05894154 0.111294106
0.047015954 0.1688837 0.040237628 0.1215191 -0.11141228 0.052113347 -0.08922914 -0.063986875
0.11730372 0.14556877 -0.15303464 0.1118709 0.022313258 -0.02437393 -0.061558053 -0.06361487
0.10766858 0.12462667 0.058102828 0.0274671 -0.006624645 0.026235405 -0.018255964 -0.019018907
0.010036977 -0.085712865 0.070505485 0.06295855 -0.12297147 -0.056058455 0.109507896 -0.011404903
-0.0077793654 0.067272194 0.073898114 -0.042263545 0.087135315 0.04142135 0.041711513 -0.017980888
-0.064593695 0.12649046 -0.06662445 0.0067037367 -0.08033458 0.122399256 0.08714697 -0.0657299
0.017249312 -0.056783408 -0.072825454 0.053773608 -0.03768497 0.009180566 -0.015862182 -0.11990457
0.047378667 0.09690084 -0.07379267 0.048019543 -0.0718488 -0.081339635 -0.0023987894 -0.019149808
0.0041992553 -0.078374 0.07887673 -0.058876436 -0.14811802 0.046682514 0.09659047 0.07399713
0.0074919076 -0.08878082 0.10120206 -0.011912523 -0.004574843 0.020871866 0.13810284 -0.058756914
0.079842925 0.041208364 0.12689492 -0.007564511 -0.0013766176 0.0016886765 0.054206483 0.06930204
0.002458918 -0.20179729 -0.031854786 -0.15751435 0.07262542 0.03237878 -0.102487504 -0.06558358
-0.15072453 -0.10514311 0.08366242 0.13749863 -0.09427407 0.09498614 -0.058895916 -0.049720448
0.106118 0.14637607 0.06825647 0.027367305 -0.03190885 -0.06350581 -0.078679115 0.09562564
0.10963899 -0.023583371 0.04633856 -0.11660125 -0.006490354 0.03566336 -0.027761577 0.005134225
0.0054796715 -0.11712658 -0.03722461 0.087301694 -0.092161074 0.03601249 -0.1641976 0.03839643
-0.13194695 -0.057920024 -0.058771856 -0.028960267 -0.13249584 -0.06545993 0.07441325 -0.035587292
0.07798733 -0.045966696 0.06320595 -0.12674363 0.11284944 0.120733894 0.11019174 0.08742432
0.021673843 -0.028494459 -0.056665946 -0.05135927 -0.000567752 0.017635863 -0.06885618 0.08472265
-0.06684413 -0.07444855 0.018376255 0.08515947 -0.09964523 0.05161944 0.025676725 -0.06168029
0.012717934 -0.13250725 0.12924017 -0.033124696 -0.0037662163 0.11100143 -0.057402167 -0.11455492
0.12524216 0.05800303 -0.13238494 0.09831946 0.015071851 0.069025554 -0.1742102 -0.06848679
0.049089387 -0.12655799 -0.10038661 -0.111798525 0.11733515 -0.039268315 0.11866045 0.011379466
-0.024390122 -0.1593098 0.08393812 -0.06352804 -0.12616251 -0.008652862 -0.13349324 -0.007397885

backbone.6.bias f4 [32]
00000000: 0742 b33b fa67 c0bd 6d9a d63c 137a 6a3c
00000010: 72a6 103e 4b61 5fbd e7f3 543c ffd0 c13d
00000020: ed08 a43d 9f79 8fbd 61c1 b23d c5b9 70bd
00000030: 3c76 7fbd 9fab 95bd 7ea3 2a3d de1d 04bd
00000040: 0cc9 08bd a277 443d 3967 483d a3f3 bf3c
00000050: 24b9 a93d b3c4 263d 260b 733d a4ee 26bc
00000060: 44af 02bd 403d 8bbd 46f8 9cbd 2cc6 e43d
00000070: dffd b2bd 2eb3 5e3c 1dd3 34bd 158f 06bd
0.0054705176 -0.09394832 0.026196683 0.014311331 0.14125994 -0.054536145 0.012997604 0.09463691
0.08009515 -0.07005619 0.0872829 -0.058770914 -0.062368616 -0.07308125 0.041659825 -0.032255046
-0.03339486 0.047965653 0.048926566 0.023431605 0.08287266 0.04071493 0.059336804 -0.010188732
-0.031905428 -0.06798792 -0.07664542 0.11170611 -0.08739828 0.013592524 -0.044146646 -0.032851297

backbone.9.weight f4 [5, 32]
00000000: 61e3 21be afd6 62be dd42 bbbd b479 cb3c
00000010: d9ba 613e f063 f33d deb9 1b3e 7432 383d
00000020: ac1d c93b 82e9 eebd a3cf 193e 2184 223e
00000030: b4c7 2d3c 4f28 3b3d 1799 aabd 1f1e 823e
00000040: 1398 9cbd 6c04 53bd f0d5 e8bc 583e 92bd
00000050: bb1d 213e 992a 273d 5cb3 5f3e b7bf 043e
00000060: 429d 313e decd 0c3d 5f81 6b3e 9606 483e
00000070: 40a7 db3d 71e2 273e 1559 a2bd 09f7 c83c
00000080: cc4d 073e 0adf e63d 4c6c 893d 72c8 1d3e
00000090: a224 aebc 844c 273e 5575 ffbd 0300 0a3e
000000a0: 91bd f5bd c91c 4fbe 67fe 1f3e 378c 91bd
000000b0: 02b7 923d fac4 01be deea 8abd a12c 0fbe
000000c0: 2436 193e a0c4 113a 14e5 253d 30a2 25be
000000d0: 1932 4cbe f3f9 1c3d ef67 bc3d 13cb f83b
000000e0: 7c87 b93d 9e45 eebd a2c4 3dbe 8209 1fbe
000000f0: 458b e0bd 43bb 57be 34a9 3b3e af1e 103b
00000100: 2b5f b83d 24b3 edbd 33a3 793e f476 323e
00000110: 1d24 5e3e e030 2fbd a7fa 113d fa21 debd
00000120: 653d 00be 3a7b 163e a907 39be a1ff 823e
00000130: 57ac 1a3e 9112 6d3e 8b7a 70be 76a0 29bd
00000140: fdc5 a53d 07d3 bf3c e19b c0bc 8b4d 0bbe
00000150: ec01 f4bd 5114 5dbe 856a ee3c df85 62be
00000160: c902 033e 13ea 463c ede2 92bd 3e8d b73d
00000170: 5927 263d b4ce 4ebe 9486 203d 74c5 f33d
00000180: e2fc abbd a00c a3bd 259c f4bd a860 2f3e
00000190: c6b7 81bc c286 c83d 1c98 f13d 0248 a23d
000001a0: ef7d 03be de33 06be 2f7e 493e d275 93bc
000001b0: a842 0d3e b98e 4c3d 5788 a43c 2b46 133e
000001c0: f111 343e e302 23bc f94b 17bc 6887 c6bd
000001d0: 3a2e d73d 1806 26be edcd 063e 41c0 0a3e
000001e0: 3841 7a3e 0772 26be d1d6 cf3d 0ec6 463b
000001f0: 2051 e6bd 5c88 edbc 421b c23d 3d6a 08be
00000200: ec53 b83d d241 51bd b07c 21bd 0df3 67bc
00000210: 39ca 9fbd 40b9 14be 83b5 acbd ed0c 613d
00000220: 2295 c33d 554e 93bd 9439 93bd aa4c c53d
00000230: 884b 33be 0683 f5bd b4be efbd 96fb 5fbe
00000240: 04a9 8cbc 65d4 733e 26be 653e e479 cf3c
00000250: fd58 bbbd f629 ab3d f772 0ebe 1d24 3d3c
00000260: 44f2 bebd 4914 25be b039 54be 0850 ccbd
00000270: 089c 7cbe 1824 e7bd b312 d6bc 254b 893e
-0.15809394 -0.22152208 -0.091436125 0.024838306 0.22043933 0.11884296 0.15207621 0.04496999
0.0061375704 -0.11665632 0.15020613 0.15870716 0.010606695 0.04569274 -0.08329981 0.25413606
-0.07646193 -0.05151789 -0.028422326 -0.071407974 0.15733998 0.04081211 0.21845764 0.12963758
0.17345145 0.034376018 0.2299857 0.19533762 0.1072526 0.16394974 -0.07927147 0.024531858
0.13213271 0.1127301 0.06710109 0.15408495 -0.021257702 0.16337782 -0.12473551 0.13476567
-0.119990475 -0.20225824 0.1562439 -0.07106822 0.07163812 -0.12672797 -0.067830786 -0.13981868
0.1496206 0.00055606104 0.04050167 -0.16175151 -0.19940986 0.038324308 0.09199511 0.0075925677
0.09059045 -0.11634372 -0.1853204 -0.1553097 -0.109640636 -0.21067528 0.18326265 0.0021990945
0.09002527 -0.11606434 0.24378662 0.1742819 0.21693464 -0.04277122 0.03563943 -0.10846324
-0.1252342 0.14695445 -0.18069328 0.25585654 0.15104805 0.23151614 -0.23484246 -0.041412793
0.08094404 0.023416055 -0.023511829 -0.13603799 -0.11914429 -0.21589781 0.029103527 -0.2212138
0.12794031 0.012140769 -0.07172189 0.08962487 0.04056487 -0.20196038 0.039190844 0.119028956
-0.08397843 -0.079613924 -0.11943845 0.17126715 -0.0158347 0.09791328 0.11796591 0.07923891
-0.12841009 -0.13105723 0.19677041 -0.018000517 0.13794959 0.0499408 0.020084543 0.14382236
0.17584969 -0.009949419 -0.009234422 -0.096937954 0.10506864 -0.16213262 0.13164492 0.13549902
0.24438941 -0.16254435 0.10148395 0.0030330452 -0.11245942 -0.028995685 0.09477855 -0.13321777
0.09000382 -0.05108816 -0.039425552 -0.014157069 -0.07802243 -0.14523792 -0.08433058 0.054943968
0.09549929 -0.07192675 -0.071887165 0.09633763 -0.17509282 -0.11987881 -0.117062956 -0.21873316
-0.017170437 0.23811491 0.22435817 0.025326677 -0.091478325 0.08357613 -0.13911043 0.011544255
-0.09323552 -0.1612102 -0.20725131 -0.09976202 -0.24668896 -0.11286181 -0.026131963 0.26815143

backbone.9.bias f4 [5]
00000000: f84f e6bc d013 2cbb b8dd 3b3d c8e5 a53c
00000010: cb2a d1bb
-0.028114304 -0.0026256926 0.045865744 0.02025117 -0.006383275
