03-Dynamic Model Parameter Tuning (LSTM-MLP Frozen Layer)/model_weights_frozen2003.pth (torch, 523863 bytes, 20 tensors)

lstm.weight_ih_l0 f4 [256, 18]
00000000: c02d c8bd db2c 153c 0848 dd3b f29a c3bd
00000010: 7e42 d3bd 144b e63c d816 ae3c 09f9 823d
00000020: 6e31 82bd 3075 4c3d d8ab e4bd 5dd6 e3bd
00000030: 2b95 f13c 10c6 d53d 50a7 0abd 248b 4fbd
00000040: 8633 e9bb 46f8 5dbd 2b42 b7bc fd17 8dbd
00000050: fe6f 2f3c b5b8 d0bd ef52 f9bd 594e c03d
00000060: 7e68 3ebd 064f 93bb 72d8 04be fe50 0fbe
00000070: f037 5ebd babb 28ba 68f6 123d abbe 333c
00000080: 7503 21ba b229 1abd 329d 6dbc 5f5d 5abd
00000090: e3b1 42ba d8bf 833d 3ab9 5b3c ab36 dcb9
000000a0: 56dd 18be 0da8 3e3d 3db6 3fbd 7e16 07be
000000b0: 3cfc bebd 4e05 483d 7007 993d 74a3 d1bd
000000c0: 167d 023e 031e d7bd fc2a 953d 1da7 e1bc
000000d0: 7a3f 2b3d 71bb cd3c fa38 043e 0300 03bc
000000e0: 1777 1ebd 49d7 9e3c fdcc b4ba de5a 273d
000000f0: 03d9 db3d cabf 04be 7278 c63d 0434 fdbd
00000100: faf6 e9bd e32d 2ebc 6736 d3bd b9de 52bd
00000110: 2a1f a3bd fbb6 e0bc 7dec c1bc db81 073d
00000120: 821f 803c befa b83d 9833 b33d 70bb a73d
00000130: 961d dfbc f19c 433d fd64 13bd ee45 323d
00000140: 9822 b0bd 5b41 d2bd 002b 37bd 9aef 19bd
00000150: 59fc cd3d c832 243d 55b6 77bd 8da8 b33c
00000160: 3cc1 953d 19dc a3bd 9305 a23d 8f33 6abd
00000170: c041 1bbd 4bd0 6f3c ab7a a83c aeaf b83d
00000180: 4d60 d8bd 9601 4dbd ea00 1a3d 1f5e 83bd
00000190: 753e 4f3d afd6 0d3d 47be afbc 4269 96bc
000001a0: 3b49 0abe ab0b 933d 1d1d 923d 66f3 e53c
000001b0: b472 fbbb c045 103d e8ad 0cbc 37c5 9cbc
000001c0: 1c6b 6a3d ea01 81bc 7aa6 203d 5ff9 37bd
000001d0: 8d5a 89bd ca1d 6fbd 231a ab3d 0593 033d
000001e0: cba8 ca3d 0a28 1bbd c0e3 8b3c 2451 773c
000001f0: 75ba d8bd c3f2 b83c 8a4c c83d 09de dd3c
00000200: f4cd 343d e1fa b8bd 06e1 89bd 208b 8b3c
00000210: 5e5c 1c3d b19c a93c 753d ea3c 2cba a3bd
00000220: 2636 b63d ba44 f83d 7780 0f3d f257 f3bd
00000230: 0eec 283d e711 463c c02a 773d 31b0 1a3c
00000240: f9bb 98bd 3ab0 b8bd d103 f8bd 4913 92bc
00000250: 6557 e7bc 7a18 debd eff9 03be 7289 9abc
00000260: 7366 ed3d 2f44 15bb 8b8a 04be a9ad 043e
00000270: d0ea 083e 72e5 9ebd e4cb 673d b8ab af3c
00000280: 811f f73d 9d0a 8f3d e001 963d 745f 813d
00000290: ec8a 0dbd aca8 a23d b820 91bc 3094 5bbd
000002a0: e096 5d3c a47d 993d 3f8a b9bd d5e1 8c3d
000002b0: 5b18 a23d 739a c9bc 3de6 94bc 4133 283d
000002c0: cc62 bd3d 404c a1bc cf21 a03d 9fae 233d
000002d0: 203a 163e dd67 d93d 4d14 813d 12f4 dd3d
000002e0: f1ee 58bd 1550 823d 4da2 bcbc 773a b63b
000002f0: 4a92 05be 3fac 07bd 376b 6b3c 41c0 903c
00000300: 30f2 efbd 7e9b 4e3d 6dd3 773d 7cc2 67bd
00000310: f38a 87bb b65b 623d ae74 acbd 16af 943d
00000320: c48a aa3c a5d8 29bd e3b1 b4bc 9eb2 debd
00000330: ebdf bc3d 9287 7c3d 58f1 593d 3a6d 2f3c
00000340: 47ea cfbd bacd e63c faad cb3d f6ef 36bd
00000350: 2fe4 5cbd 96dc 2fbd 5d3b d33d c957 32bd
00000360: 0394 0ebe 9bc1 4dbb 4324 42bd 8566 233d
00000370: 3ab7 dcbd 1fe8 febd a706 d5bd ea2f b63d
00000380: d043 6c3d fd6f 3d3d 4e5a 3d3d da42 f2bd
00000390: 9590 c2bd 1650 633d b06a a3bb 4ee3 72bd
000003a0: 61b0 8ebd aab1 ce3d b243 f7bd 7909 4abd
000003b0: e39a 0f3d 5214 843d 363c 04be 6763 f8bd
000003c0: 095b d73d d72a 40bc fc97 a83d 52df b33d
000003d0: f2db 823d 38ca f43d a7ef 923c 7bc4 bebd
000003e0: ada7 eebd e632 1bbe 76ed aa3c eb89 3bbd
000003f0: 901c 903d f6af 473d 5016 c1bc dce1 ccbd
-0.09774351 0.009104933 0.0067529716 -0.09551038 -0.10315417 0.028111972 0.021251127 0.06395156
-0.06357084 0.049916446 -0.11165589 -0.11124871 0.029490074 0.10438168 -0.033850968 -0.050669804
-0.007116738 -0.05419185 -0.022370419 -0.06889341 0.010707853 -0.1019148 -0.121740215 0.09389944
-0.04648637 -0.0044955043 -0.12973192 -0.1399574 -0.054252565 -0.0006436665 0.035879523 0.010970752
-0.0006142178 -0.03763742 -0.01450281 -0.053311702 -0.000742702 0.06433076 0.013410861 -0.000420024
-0.14928183 0.046546984 -0.046804655 -0.13192174 -0.09325454 0.048833184 0.07472122 -0.10236254
0.12743029 -0.10503771 0.07283589 -0.027545506 0.041808583 0.025113793 0.1291236 -0.007995608
-0.03868779 0.019389765 -0.0013794001 0.040858142 0.10734751 -0.12963787 0.09690942 -0.12363437
-0.1142406 -0.010631057 -0.10313111 -0.051481936 -0.079649284 -0.027431002 -0.023672337 0.033082824
0.015640024 0.090322 0.08750075 0.08190048 -0.027235787 0.047757093 -0.03598498 0.04352372
-0.08600348 -0.10266372 -0.044718742 -0.037582017 0.10057897 0.04008749 -0.06047662 0.021930957
0.07312247 -0.08000965 0.079112194 -0.057178076 -0.0379045 0.014637063 0.020566305 0.09017883
-0.10565243 -0.05005034 0.037598528 -0.064144365 0.050596673 0.034628566 -0.021453036 -0.018360738
-0.13504498 0.0717996 0.07134459 0.028070163 -0.007673586 0.03522277 -0.008586384 -0.019137008
0.057231054 -0.015747983 0.039221264 -0.044915553 -0.06706724 -0.05837802 0.083545946 0.03212263
0.09895476 -0.03787998 0.017076373 0.015095029 -0.10582439 0.022576695 0.09780224 0.027083414
0.044141725 -0.09032226 -0.06732373 0.017034113 0.038174026 0.0207046 0.028593758 -0.07994494
0.08897047 0.121224836 0.035034623 -0.118820086 0.041240744 0.012089229 0.060343504 0.009441421
-0.07457728 -0.090179875 -0.12110103 -0.017831462 -0.028239915 -0.10844512 -0.12888311 -0.018864367
0.11591806 -0.0022776236 -0.12943475 0.12956871 0.13370824 -0.07758607 0.05659093 0.021444187
0.12066556 0.06984446 0.073245764 0.06317034 -0.034556314 0.07942328 -0.017715797 -0.05360812
0.013524741 0.07494667 -0.090595715 0.068790115 0.07914802 -0.02460978 -0.018176192 0.041064505
0.0924736 -0.01968968 0.078189485 0.039961454 0.1467061 0.106155135 0.063027 0.10837568
-0.052962247 0.06362931 -0.02302661 0.005561169 -0.13044086 -0.03312325 0.014368824 0.017669799
-0.117161155 0.050441258 0.060504366 -0.05658196 -0.004136437 0.055263244 -0.084206924 0.072599575
0.020818122 -0.041466374 -0.02205748 -0.10873912 0.092223965 0.061652727 0.05320868 0.010707194
-0.10152107 0.02817427 0.09945293 -0.04466244 -0.05392855 -0.042934977 0.10314057 -0.04354075
-0.1392365 -0.0031395915 -0.047397863 0.039892692 -0.10777135 -0.12446617 -0.104016595 0.08895858
0.05768186 0.04624938 0.0462287 -0.11829157 -0.09500233 0.055496298 -0.0049870834 -0.059298806
-0.06967235 0.100924805 -0.12073459 -0.04932544 0.03505982 0.06449188 -0.12913594 -0.121283345
0.105154105 -0.011728964 0.08232114 0.08782829 0.063896075 0.11952633 0.01793654 -0.093148194
-0.11653075 -0.15156135 0.020865183 -0.045785826 0.07036698 0.048751794 -0.02357021 -0.10004017

lstm.weight_hh_l0 f4 [256, 64]
00000000: 2bbf ba3d 7c94 83bd 28d6 383d 8c1a a4bd
00000010: b7f2 ce3c 659a d3bc e721 68bd 103d 473d
00000020: e105 c43d dc72 bebd ee4c 343d 4872 5dbd
00000030: 552a db3d db7a d93d 84ea 64bc f7a6 f339
00000040: 9636 883d ac48 853a d382 173d 91cc 82bd
00000050: 3d42 db3d 60b0 afbc 5d49 7a3d 8622 0a3d
00000060: 7334 a7bd ce55 d2bd ecff 3a3c 99d4 ef3c
00000070: 883f 35bd 0d9e 413d cb85 8b3c 9d41 c1bd
00000080: f87c e53d c90d 95bd 041b 0cbe 21e2 b6bd
00000090: 4b6b 6a3d 4ba4 debd bcb6 75bc 87b7 ecbd
000000a0: 978d ffbc 140f 86bc 4a7e 763c c37d aa3d
000000b0: 7484 883d b024 19bd 8625 90bc b339 38ba
000000c0: 5eb3 b9bd 1f82 48bd 5805 c73d 568a 463d
000000d0: 32e3 3d3d 6949 1b3d 382d d13c cc31 713d
000000e0: fa54 573d 9f8e e1ba 9117 113b 7bd4 5a3d
000000f0: ae4f 903d dfda ba3d 8178 e33d 345b c6bd
00000100: b41e f2bc 407e 353d 3db2 a1bd c1e3 d93d
00000110: f42e 05bd e9b8 c03d 15ee 1dbd 0319 073d
00000120: 9d8f 023e fcc6 ad3d c721 003e fab3 f4bd
00000130: 341f bbbc 8214 153e ced1 da3c 9852 b73d
00000140: 2770 aa3d 3af6 e73d a7bd 23bd 99dd 81bd
00000150: e3f3 123e e2e9 3dbd 3682 16bd c944 b03d
00000160: abe8 9abd b516 ea3c 6525 8abd fa45 cbbd
00000170: c35e 6bba a2ff 17bd 4171 093e a73e 8ebd
00000180: ccea 1e3d fc72 853d f388 1a3d ca7d 0ebe
00000190: 4f20 a4bc b957 7cbd fee0 593d 04b9 6dbb
000001a0: 4037 bf3c 374e 81bd dd6e 52bb 2e16 d3bd
000001b0: 81c7 863d 0aee 0ebd eaa3 95bd 856b c8bd
000001c0: ce99 ae3d 1ad1 e2bc 9ed5 dd3c f3b1 9439
000001d0: 0ac5 8a3d f5fa e0bd 4c87 4cbd a18c 4e3d
000001e0: b2d1 89bc 2054 55bd 9abe 8e3d eec7 2a3d
000001f0: d653 033e 450b ff3d b87d 903d 95ec 14be
00000200: 8ea4 da3d f50a 1abe 6811 0abd 332f c4bd
00000210: 05ed cd3c 5cf8 d1bc 75b7 083e 2303 cd3b
00000220: 9d23 303d 99e8 16bd f9c3 193e b8cd 5abd
00000230: fa4e 56bd 1cc8 333c f0b6 f4bd 2c7c 9e38
00000240: ebcb d73c 09e8 0a3e a023 aa3d 8dee 743d
00000250: 9609 ff3d 4570 79bd abaf e1bc 9ad8 c2bd
00000260: 97dc a8bd 4118 bebd 912a 363d 87f5 e8bd
00000270: 5519 063d 359e fa3d e202 8abc 8935 e8bd
00000280: c032 46bd 2302 a13d 9060 bd3c 1f13 03bd
00000290: 9073 91bd 61c6 97bd f4f4 5fbd 3711 febd
000002a0: 18fd a33d 62d6 10bd 1cde fdbd cb32 963d
000002b0: bb23 e8bd f9ed 423c 9e01 16be 505f 733d
000002c0: 7fff 54bc 110e 723d 6a68 423d 9c16 9e3c
000002d0: 0ff1 9c3d 3752 a23d af80 7fbd 2fa4 2e3d
000002e0: 7e9e f0bc 34e0 bebd 4951 73ba 46ba 36bd
000002f0: 9316 c5bd ea50 fdbc 16a9 2cbd 15e9 c63d
00000300: 63e0 c33c aed9 02be 73f3 8fbd 92d0 66bd
00000310: 6a18 0dbe 06ce 633c 9404 823d f365 42bd
00000320: 51b2 91bd 2cf2 93bd a50b 6e38 11a4 c53d
00000330: a263 b53d 9cbc f5bc 6205 cb3d 4844 353d
00000340: 73a1 153d ade2 32bd 1eaa a5bd 7333 ea3d
00000350: fb2c d33d 8871 04bc cacb bebc 738e bbbd
00000360: 880a a03d 4adb c13d e548 503d afc8 ba3d
00000370: 0a06 ec3d a6b7 a9bc 7d47 73bd 6db1 c13d
00000380: 5bbe ed3d fd0a f33a c04f 32bd b866 32bd
00000390: ccfc a4bd ba81 c53d 994f 343d a44d 083d
000003a0: 47b7 a03d 0ded aebd 5458 293c 3dc0 f7bb
000003b0: b39b c1bd 15fe 91bd 2df4 97bd 6487 fabd
000003c0: 8971 cd3d cfd1 f6bd 3113 11bd 8af1 7b3d
000003d0: 3324 dfbd dc5f 8c3c 84fb 94bb 0e9c debd
000003e0: ff2c 5e3d 651c ab3d df72 d33d fddf c9bd
000003f0: a6ef 63bd e020 b4bd 7bf6 02bc ad87 073d
0.09118494 -0.064248055 0.04512611 -0.08012876 0.02526222 -0.025830457 -0.056672957 0.048642218
0.09571434 -0.092992514 0.04401868 -0.054064065 0.107014336 0.10619136 -0.0139719285 0.0004647297
0.066510364 0.0010168753 0.036989998 -0.06386674 0.10705993 -0.021446407 0.06110512 0.03372433
-0.08164301 -0.10270272 0.011413556 0.02927618 -0.04425004 0.04726987 0.01703157 -0.09436343
0.112054765 -0.0727802 -0.1368218 -0.089298494 0.05723123 -0.1087118 -0.014997181 -0.115584426
-0.031195445 -0.016364612 0.015044758 0.083247684 0.066658884 -0.037388504 -0.017596018 -0.0007027641
-0.09067415 -0.04895222 0.09717816 0.04847177 0.04635925 0.037911806 0.025534257 0.05888538
0.052571274 -0.0017208642 0.002213929 0.053425293 0.07046448 0.091237776 0.11106969 -0.09685364
-0.029555656 0.044309855 -0.078953244 0.10639144 -0.03251548 0.09410269 -0.03855713 0.032982837
0.12750097 0.08485219 0.12512885 -0.1194839 -0.022842027 0.14558604 0.02671137 0.089513004
0.083221726 0.11326261 -0.03997579 -0.063410945 0.14350848 -0.046365626 -0.036745273 0.0860687
-0.07563909 0.02857528 -0.06745414 -0.09925456 -0.0008978659 -0.037109025 0.13422109 -0.06945544
0.03879814 0.06516072 0.03772826 -0.13915172 -0.020034937 -0.061607096 0.053193085 -0.0036273608
0.023341775 -0.063137464 -0.0032109537 -0.10306965 0.06581021 -0.03489498 -0.07306655 -0.09786133
0.0852543 -0.027687598 0.0270794 0.00028361342 0.067758635 -0.10985366 -0.049933717 0.050427083
-0.016823623 -0.05208218 0.06969948 0.041694574 0.1282495 0.12453321 0.07055229 -0.14543374
0.106759176 -0.15043242 -0.033708006 -0.09579315 0.025137434 -0.025631122 0.13351233 0.0062564774
0.043002713 -0.036842916 0.15016164 -0.053418845 -0.05232141 0.010973003 -0.11948955 7.557156e-05
0.026342353 0.13565077 0.08307576 0.059797812 0.12453 -0.060898084 -0.027549585 -0.0951397
-0.08245199 -0.0928197 0.04447419 -0.113749556 0.032739002 0.12237207 -0.016847078 -0.11338336
-0.048388243 0.07861736 0.023117334 -0.032000657 -0.0710212 -0.07410885 -0.054676965 -0.12405627
0.08007258 -0.0353607 -0.123958796 0.07333907 -0.1133494 0.011897557 -0.14649054 0.05941707
-0.013000368 0.059095446 0.04746286 0.01929789 0.07663166 0.079258375 -0.06237858 0.042637046
-0.02937245 -0.09320107 -0.0009281827 -0.044611238 -0.09623446 -0.030922372 -0.04215344 0.097124256
0.023910707 -0.1277835 -0.07028856 -0.056351252 -0.13778844 0.0139041 0.063485295 -0.047460508
-0.07114089 -0.07223925 5.6754467e-05 0.09650434 0.08856894 -0.029997163 0.09913136 0.04425457
0.036530923 -0.043673206 -0.08089088 0.114355944 0.10311314 -0.008083709 -0.023290534 -0.091580294
0.07814509 0.09465654 0.050850768 0.091203086 0.11524589 -0.020717453 -0.05939435 0.094576694
0.11608573 0.0018542703 -0.043533087 -0.04355499 -0.0805603 0.09643884 0.044021223 0.03327717
0.078474574 -0.085413076 0.0103360005 -0.0075607584 -0.094535254 -0.071285404 -0.0741962 -0.12232855
0.10031421 -0.120517366 -0.035418693 0.061509646 -0.10895576 0.017135553 -0.0045465846 -0.10869609
0.05424213 0.08355025 0.10324644 -0.098571755 -0.05564847 -0.08795333 -0.007993336 0.033088375

lstm.bias_ih_l0 f4 [256]
00000000: c798 083e acd1 8dbc 66ee ad3d d382 afbd
00000010: f4ae 943d 3c5d 9d3d 8d00 84bd 2be2 003d
00000020: b8c4 ea3c 8fcf e6bc 7f56 36bc f7cb b53d
00000030: 3c1e 58bd 50c2 1abd 22b9 8dbc 54ee a7bd
00000040: b21e e83c fc3e 8bbd 93d4 67bd 456e b8bd
00000050: 8c18 9ebd a967 3f3d b2ce b1bd dfef a33c
00000060: a0a8 d83c 8eda 9b3d 9b67 6d3d ae55 a03b
00000070: 1b9e bcbd e2ea f73d 8c7e b7bd 6445 653d
00000080: d89c f53d 3825 c73d ec56 573d 5f9d 953d
00000090: a76e 38bd 0000 c7bd fe2c 093e 1dd8 d13b
000000a0: 3d4c 09bd 6029 3ebd cb88 b03d 4b15 94bd
000000b0: c0c2 bdbc 544a ad3d 87af a0bd 77c0 d63d
000000c0: b53f 093e 465b ed3d 7770 c3bd 97b6 59bd
000000d0: 8bfb b4bd 8053 bc3d 1948 40bc 8299 7a3d
000000e0: b24f bcbd dce3 403d 9a03 0fbd 812f 183d
000000f0: b713 94bd 554e 33bc cfa3 6fbd d6e2 08bd
00000100: ee23 9bbd fee3 023e cf30 2dbd 5c8a 4dbd
00000110: fc7b 07bc ce88 8db9 2bb8 893d 2b4b 883d
00000120: a589 213d 648b 833d 7910 b73d c7df 863d
00000130: c21b 063e 8fa5 933d 9e5e 083e 564c a13d
00000140: 04ab b4bd 05ef 2e3d ed5d eb3d e33b 78bd
00000150: 4cdc 81bc 5243 a93d 6b69 0ebc c1f4 3d3c
00000160: 43ac 053e 8603 30bb a9da a53d 9eb7 053e
00000170: c46e 343d 1d8f c43c d4af db3d 741f 9d3d
00000180: 8ef2 25bd 4998 fe3d 5694 663d 53c5 4bbd
00000190: 73f6 debd 9d92 6e3d 44e7 a9bd 70fa f1bd
000001a0: d248 a5bc 6707 b83c 6fc7 083d d743 b03d
000001b0: cb8c 67bd 1192 88bd b96c a3bd 19de 0f3e
000001c0: 8f55 d4bd 25cc 453d a740 323d 78da 613d
000001d0: 6c97 f33d 8e6e e93a f897 2abd 9e17 71bd
000001e0: 9a70 593d 4a36 fa3c d1e4 d73d b2c3 c63d
000001f0: 060b ea3d 90b5 e63d d631 0c3e 9de6 1c3d
00000200: ad32 72bd 1ca8 d3bc 1d3c 0f3e 9193 b6bd
00000210: 110b f2bd 99ca 7d3d e964 33bd 62ff f23c
00000220: e6dc a33d 6281 ec3d 50cb 133d 177d 073e
00000230: 29e6 fe3c 3d12 c13d 026c b63c 2a0c 30bb
00000240: a52e 533d 2989 03be 1a6c 00be fe8a 8b3d
00000250: 92e2 58bd b6a8 a0bd 56cd 4e3d d5ba 14bc
00000260: 6f84 b1bc 70d5 30bd 2362 17bd dc40 f03c
00000270: b6e4 ec3d f4aa aebd e753 1fbd 4438 19bc
00000280: 6985 9fbc 49d5 853d 33e0 a1bd 12c7 2b3d
00000290: 61df 4b3d e0b4 a1bb 01e7 873d 5794 ac3b
000002a0: 9895 bd3d 3555 9b3d ebcc b7bd a5b1 403c
000002b0: b4fc c83d c94a 623d 9122 a03d 7eb9 cdbd
000002c0: b412 ed3d 8951 64bd eddd d8bc f313 053d
000002d0: c1ce 84bd 0213 9c3d 2148 02be 5dd0 8dbb
000002e0: af1b 03be 5161 053e 27ce dfbd ec3b f53d
000002f0: 004a 50bd e2c5 753d e86c 0c3e f38f b5bb
00000300: 41ec a63d 456a b43c dff5 0c3d 86dd d0bc
00000310: 86cc 0ebd f77a 64bd fdc9 cc3d ab80 d4bc
00000320: 9961 7f3d 718c 343d 784c c1bd 8983 c8bd
00000330: c26d a33d 1592 e8bc 2674 133c 6844 b6bc
00000340: ce68 d13d 1aae b6bd 9e49 3e3d f748 013d
00000350: 3f37 0b3e d825 a8bc c08a b33d 3cd7 053e
00000360: 49ef 883c 3a0b 2bbd 8d1d b9bc de0d 6bbd
00000370: a4a0 cd3b 12a2 913d 7d8f 923d 8b59 023e
00000380: 2d45 d2bd 002f 75bd 5a5a 2ebb 7f62 74bd
00000390: 55b0 0bbc d51a 62bc 21a3 2ebd 2a10 04bd
000003a0: 3d9e f3bc 6b7d 0d3d cd7c 453c 283c 873d
000003b0: eb1a 803d 3480 9e3d 2bb1 603d 6422 80bd
000003c0: bc7e 393d 16f5 8d3d a4ef aa3d 6fbd d4bd
000003d0: 0ae4 943d 61d9 72bd c609 62bd fda8 e3bb
000003e0: 8264 403d 7ebe b1ba 3c08 073e 215a 68bd
000003f0: 12df cbbd 107b c3bd c28a c2bd fb8f 6b3d
0.1333953 -0.017311893 0.084927365 -0.085698746 0.07259932 0.07683799 -0.064454176 0.03146569
0.028658256 -0.028175144 -0.011129021 0.08876794 -0.05276321 -0.037782967 -0.017300192 -0.08199754
0.02833495 -0.06799123 -0.05659921 -0.09005407 -0.07719526 0.046729717 -0.08682002 0.02001184
0.026447594 0.076100454 0.057960134 0.0048930263 -0.09209844 0.12105347 -0.08959684 0.05597438
0.11992806 0.09723896 0.05257313 0.07305407 -0.0450274 -0.09716797 0.1339607 0.0064039365
-0.033519972 -0.046426177 0.08619841 -0.07230624 -0.023164153 0.084614426 -0.07845979 0.104859285
0.13403209 0.11589675 -0.09542935 -0.053152647 -0.088370405 0.09195614 -0.011735939 0.061181553
-0.09194888 0.047092304 -0.034915544 0.03715468 -0.07230323 -0.010943969 -0.05850583 -0.033419453
-0.075752124 0.12782285 -0.042282876 -0.050180778 -0.008269306 -0.00026995543 0.067245804 0.06654962
0.03943791 0.06423071 0.08938689 0.06585651 0.13096526 0.07209312 0.13317344 0.07875888
-0.08821681 0.042708416 0.11492524 -0.060603987 -0.015852116 0.082647935 -0.008692126 0.011593998
0.13053994 -0.002685757 0.08098347 0.13058326 0.044050947 0.023994023 0.10726896 0.07672015
-0.04051452 0.1243139 0.056293808 -0.04974873 -0.1088685 0.05824529 -0.082960635 -0.11815345
-0.020176325 0.022464467 0.03339332 0.086066894 -0.056530755 -0.06668485 -0.079797216 0.14049567
-0.103678815 0.04829039 0.04351869 0.05513999 0.11894116 0.0017809437 -0.041648835 -0.058860414
0.0530859 0.030543465 0.1054169 0.09705295 0.11427884 0.11265099 0.13690886 0.038305867
-0.05913036 -0.025836997 0.13987775 -0.08914865 -0.11818517 0.06196079 -0.043797407 0.029662792
0.080011174 0.11548115 0.036082566 0.13231312 0.031115608 0.09427307 0.022268299 -0.002686272
0.051558156 -0.12845291 -0.12541237 0.0681362 -0.05295045 -0.07844679 0.050488792 -0.009077747
-0.021669595 -0.0431723 -0.036958825 0.029327802 0.11567061 -0.085287005 -0.038898375 -0.009351794
-0.019472795 0.065348215 -0.07904091 0.041937895 0.049773578 -0.004934892 0.066358574 0.005266707
0.09257048 0.07584611 -0.08974632 0.011761104 0.09813824 0.055247102 0.07819093 -0.100451455
0.11575833 -0.05574182 -0.02647301 0.03248973 -0.06484748 0.07620813 -0.12722827 -0.0043278174
-0.12803529 0.13025405 -0.10927992 0.1197432 -0.050851822 0.06000317 0.1371342 -0.0055408417
0.081505306 0.02202333 0.03441417 -0.025496256 -0.034863017 -0.05578133 0.09999464 -0.02594026
0.062348936 0.044079248 -0.094384134 -0.09790713 0.07979919 -0.02838997 0.00899986 -0.022249416
0.10225068 -0.08919926 0.046456926 0.031563725 0.13595293 -0.020525858 0.08766699 0.13070387
0.016715663 -0.041758753 -0.022597099 -0.05738627 0.0062752534 0.071109906 0.071562745 0.1272947
-0.102671005 -0.059859276 -0.0026604147 -0.059664246 -0.008525928 -0.013800343 -0.04263604 -0.032241978
-0.02973854 0.034543436 0.012053681 0.06603271 0.06255134 0.077392966 0.05485646 -0.062565595
0.04528688 0.06931512 0.08346489 -0.10387694 0.072700575 -0.05928934 -0.055185102 -0.006947635
0.04697085 -0.0013560799 0.13186735 -0.05672658 -0.09954657 -0.09544957 -0.09499122 0.057510357

lstm.bias_hh_l0 f4 [256]
00000000: 00d7 a43b 1543 113e 276d e8bb fbe5 b0bc
00000010: eae0 ba3d 3261 553d f56d d83d bd63 8dbd
00000020: 5550 b7bc 2e3e 263d 6ae6 f43d f3cf 383c
00000030: 6044 96bd 0159 b23c b7a7 e83d e87a 183c
00000040: 1584 023e 8338 b1bb 39c6 a4bc c0b7 373c
00000050: 9695 f93a 0f25 1d3d 523f bf3d 1677 6dbd
00000060: 5fde b23d 86eb 1a3c 97ed 78bd ce21 733c
00000070: 4b1a febc 0fa6 51bc 5305 0a3c ebfb 893d
00000080: a246 643b 50ab c63d e322 923b cd03 203d
00000090: 4c80 ee3d 260a ca3c 6411 80bd 2f36 a03d
000000a0: e169 de3d 3124 4a3d 97a7 c63c c696 043e
000000b0: e2b3 aebd 27e4 fbbc dfde 9f3d 15b4 a3bd
000000c0: df5a f83d b004 c63d a693 7d3b 837f 95bd
000000d0: a900 36bd 22ba bdbd 536f 823d 239a 643d
000000e0: 169d dcbd f6a9 06bd 6725 8f3d e890 c53d
000000f0: 284b 2a3d 164b b23d 6fb0 e13d 9564 66bd
00000100: 5052 c9bd c599 803c d037 693d 926c b1bd
00000110: a7b1 bf3d a8f4 51bc 3b64 8f3d ed01 e4bd
00000120: e794 d33d 3681 c93b b5fa ad3d 25c0 05bd
00000130: 409b 8f3d 1b2e 97bd 82ec 60bd 37e2 bdbb
00000140: 4472 e43d 2bb2 cc3d 9a91 4bbd a077 c63c
00000150: 34ef bc3d 1aad eb3d aeaf ccbd 5460 983d
00000160: 5f75 bc3d d460 023d 3aa2 7dbd 5e72 d83c
00000170: 3627 c53b f75d 19bd 00a8 f0bc 900d ccbd
00000180: 3c2e a6bc e6fc b0bc 9aaa 143d e9c9 9cbd
00000190: dfe8 0d3b 8356 a2bd f3b7 643c 6a73 46bd
000001a0: b2f7 b93d 7c71 d1bd b59b 143e c450 cf3d
000001b0: 7018 4f3d 733b ff3d c92f bebd a52c 503c
000001c0: 8728 e23d 1020 1dbd e6ea 86bb 19bb 72bd
000001d0: e635 8abd e12a 59bd edf0 1b3d aa19 123e
000001e0: 0224 283d ffb6 4f3c 6b33 9b3c 160d 02bd
000001f0: 36a2 a73d db4a bdbd ca83 b63d 9028 39bd
00000200: ea72 c4bb 0c05 d53c cb56 133e 5e64 c7bc
00000210: 1712 e3bd dc17 04bc 47bd f73d b882 d0bd
00000220: 7c76 0dbd 5e60 a03c 889c 6ebd a5be a33d
00000230: f772 abbd 39b0 ac3d 9665 563d a598 ce3d
00000240: 6537 b23d 702d 113d d3b2 e1bd cf1f 9d3d
00000250: 6724 91bd 08db 7fbc 5196 acbc ad29 49bd
00000260: 2466 e43d eb20 0b3d 8e24 903d e4ce e53c
00000270: 0648 45bd c201 ca3c a937 fdbd 7229 98bc
00000280: bbf0 893d a6e0 4abc 5aec ae3b d6a5 45bd
00000290: 14e0 a03d fbf5 1fbd 20e2 aebc 4231 e7bc
000002a0: 72be 9c3d 9b62 a73c ac1a ab3c 4f4d b53d
000002b0: f473 89bd f8d0 9abd 0980 843d 2a14 82bd
000002c0: a8a5 f13d 0530 d9bb 1d46 053e ebd6 a7bd
000002d0: e4d2 ee3b b9ef c83c 9516 b9bd 2718 36bd
000002e0: 1741 1abc f543 163d 449b 0e3d 56c1 19bc
000002f0: edf2 8bbd d521 cfbd d03b f63c 0e80 b53d
00000300: 535e 7b3c 1ccd 6abd 28d4 8abb 3938 80bd
00000310: 7f9e a2bd 802d 113e 4a6e 60bd 950e 8ebd
00000320: 49ed 9bbd 907f 2abd 33c4 c83c c7a1 6f3c
00000330: 0f02 53bd ce3e bcba 3989 c2bd 16d0 62bd
00000340: 7e44 023e 6f69 2f3a b611 2b3d 21fa d1bd
00000350: 05a2 a5bd 326d 9ebc 4c1f 083d 0b71 86bd
00000360: ee7a 07bc 0d90 2bbd edd7 8e3c 1400 8e3c
00000370: cfd5 e53d cb4f aabd e223 1f3d 877b c33d
00000380: c31a d63d a924 b43c ec6a cd3d 7f0d 0f3e
00000390: 42a5 80bd 7677 063e 818e 043d 34fa 963d
000003a0: 2593 0b3c deb5 50bd 8b1c 0f3d 3c80 06bd
000003b0: 2d76 fc3d 5e31 c4bd 23ef c8bd ad15 88bd
000003c0: 3e5c 6d3c e015 e0bc 1f98 fc3b dd23 e03d
000003d0: 2a6e 923d 92e6 c23c 999d 953d c831 023e
000003e0: b6a8 65bd 897c 91bd 8b6e cb3b 91d0 913b
000003f0: 695a fdbc 4331 1fbd d47f d3bd f524 c6bd
0.005030513 0.14185746 -0.00709309 -0.021594038 0.0912493 0.052094646 0.10567848 -0.06903789
-0.022377172 0.040586643 0.119580105 0.011280048 -0.0733726 0.021770956 0.11360114 0.009306647
0.12745698 -0.005408348 -0.020114051 0.011213243 0.0019041772 0.03836542 0.09338249 -0.057974897
0.0873382 0.009455567 -0.06077346 0.014839603 -0.031018397 -0.012795939 0.008424121 0.06737503
0.003483214 0.09700644 0.004459725 0.039066125 0.116455644 0.024663042 -0.06253317 0.07822835
0.108600385 0.04935092 0.024249835 0.1294814 -0.08530404 -0.03074844 0.07806181 -0.07993332
0.12126707 0.09668863 0.0038692742 -0.072997116 -0.044434223 -0.09264018 0.0636889 0.05581106
-0.10772149 -0.03287693 0.06989556 0.09646779 0.04157558 0.08705728 0.1101998 -0.056248266
-0.09830153 0.015698323 0.056937993 -0.08663286 0.09360056 -0.012814678 0.07001539 -0.1113318
0.10331135 0.0061494363 0.08495084 -0.032653946 0.070120335 -0.07381841 -0.05491305 -0.005794789
0.11154607 0.0999492 -0.049699403 0.024226964 0.09225312 0.11507626 -0.09994446 0.07440248
0.09202074 0.031830624 -0.06192229 0.026421722 0.006016637 -0.037443127 -0.029376984 -0.09963524
-0.020285718 -0.021604966 0.03629551 -0.07655699 0.0021653695 -0.07926657 0.013959873 -0.04844991
0.09080447 -0.102267236 0.14512523 0.10122827 0.050560415 0.12462511 -0.09286458 0.012705957
0.11042886 -0.038360655 -0.0041173575 -0.05926046 -0.067485616 -0.053019408 0.03807156 0.14267603
0.041049965 0.012677907 0.018945416 -0.03175076 0.08185236 -0.09242793 0.089118555 -0.0452047
-0.005995144 0.026003383 0.14388578 -0.024339851 -0.11087435 -0.008062329 0.12096649 -0.101811826
-0.034536824 0.019577201 -0.05825475 0.07995347 -0.08371537 0.08432049 0.052342974 0.100877084
0.08701972 0.035443723 -0.11020436 0.07672083 -0.07087021 -0.015616186 -0.02106777 -0.04911201
0.11152294 0.03396694 0.07038222 0.028052755 -0.04816439 0.024659041 -0.12364132 -0.01857445
0.06735369 -0.012382662 0.005338234 -0.048253857 0.078552395 -0.039052945 -0.02134806 -0.02822173
0.07653512 0.020432761 0.020886742 0.08852636 -0.067115694 -0.07559389 0.06469733 -0.06351502
0.117991745 -0.006628039 0.13015027 -0.08195289 0.0072883237 0.024528371 -0.0903751 -0.044456627
-0.009414933 0.036685903 0.03481604 -0.009384474 -0.06833444 -0.10113875 0.030057818 0.08862315
0.015342313 -0.057324514 -0.004236717 -0.062607236 -0.07940387 0.14177513 -0.05479268 -0.06936375
-0.07613618 -0.04162556 0.024507618 0.014625973 -0.051515635 -0.0014361979 -0.094988294 -0.055374227
0.1272144 0.0006691431 0.041764937 -0.102527864 -0.080875434 -0.019339178 0.033232972 -0.0656453
-0.008269055 -0.041885424 0.017436946 0.017334022 0.112224214 -0.083160006 0.03885258 0.09545045
0.10454323 0.021990137 0.10030159 0.13969992 -0.062815204 0.13131508 0.032362465 0.07371941
0.008518969 -0.050954692 0.03493933 -0.032837138 0.12327228 -0.095797285 -0.09811237 -0.06644759
0.014487324 -0.02735418 0.007708564 0.109443404 0.071499184 0.023791585 0.0730545 0.12714303
-0.0560691 -0.07103831 0.006208246 0.004449912 -0.0309269 -0.03886534 -0.10327116 -0.09675018

lstm.weight_ih_l1 f4 [256, 64]
00000000: 3566 b8bd 99af e8bb 1da2 4cbd 0fb9 04be
00000010: f89a 0f3e 6dcf 043e 25f0 e1bd 7b96 3b3d
00000020: 4f32 763d abeb 5bbd 0d32 a8bd a81c 13be
00000030: 1789 0dbd 5697 153e 2937 b9bd c7f9 ad3d
00000040: 621b 6c3d 7a37 273c ad1f bcba 4c6c 93bd
00000050: bb0a 59bc 0221 123e 458b 5ebd f14c 23bd
00000060: 2dfe d8bd 4ab9 233d a04e b5bd 5898 a23d
00000070: 7b16 e9bc 20d6 103d a705 18ba f7e4 07be
00000080: f67d 6abd f593 c73d b703 e63d 3a6a b3bd
00000090: 8eae bfbd 3e84 5ebc ea01 4abd 296d d83d
000000a0: 18bf ae3d f797 b1bd bb82 453d cd7e 893c
000000b0: 59ba 7bbc 5062 d43d 2584 a53d 3432 b3bd
000000c0: cc5e c83c 80f9 003c 3070 b93d 3ad4 1e3d
000000d0: 1310 e23d 2c59 98bd 5408 8d3c eaae aebd
000000e0: 95f9 d8bd f3d9 2ebd e273 b43c 3580 233c
000000f0: 0634 9d3c f372 56bd 07ed 21be f302 263a
00000100: 8f9b 183d ab62 8b3d d381 b2bd 2662 913c
00000110: 7b38 943b 9823 153b 1403 46bd 6a31 81bd
00000120: bc96 5fbd f63b b53d 61a4 fa3d d467 413d
00000130: 57bc e13d 55e8 f43d b363 c9bd 6081 1fbb
00000140: fde9 953c bf1a b9bd 33bd 96bb 49d8 5e3d
00000150: 0e8a cb3d b173 c5bd 59b1 9a3d 30c9 14bc
00000160: 919c e03d bdae 023c 02d7 3dbd 5e27 74bd
00000170: 9235 8fbc faf8 873d 2209 13bd 5260 c53d
00000180: fea3 653c c538 1b3d 26ff ae3b 5a9f eebd
00000190: c68f 483c 7f6f 67bd a0b1 aabd 0f42 d2bd
000001a0: e3a9 92bd 11f9 d8bb b32f dbbd 3a5c cebd
000001b0: 07cf f73b 4e4f c3bd da0b 0c3e bd9d 6cbd
000001c0: ccef a93d 2d4d 7bbd 8c1a 0abd c738 41ba
000001d0: 457f fabd 3772 c6bd 89c6 8dba e4da 003e
000001e0: 5d6d 43bc 099f 24bd 7c70 ffbd 5a1b 7dbd
000001f0: 6570 e9bb 633b a23c fedd 963d bda7 36bd
00000200: c39b 323d efe0 0abe ab75 0a3e 383c cbbc
00000210: 7fc3 843d 54dc ffbc 17b1 e43d 0d17 c33d
00000220: b958 cbbc 7928 8abd 8c89 7abc e8c1 ba3b
00000230: 1646 cd3d cdbd 00bd 81d6 55bd a088 dabd
00000240: c46d 3a3d cc7a dabd d195 ba3d c5a7 24bd
00000250: 5345 01be 75bc 8abc 7db2 18bd 2979 a9bd
00000260: 3669 f4bc 2150 513d 2814 693d 1c08 993c
00000270: 8c33 7c3d 67ad 81bd 40b4 eabd 41c5 d53d
00000280: f986 22bd 6814 c7bd ef7b bb3d 2d94 2c3d
00000290: 908e 833b 0c1e 41ba 7260 cfbd 66cf afbc
000002a0: a540 55bb 3278 8cbd d27a c1bd 9299 413d
000002b0: 6fe7 b8bd df53 7bbd 39dd debc 8ae7 3c3d
000002c0: 2ffc f33d f578 723d 0cd4 7a3d 1c44 c63d
000002d0: e562 593d 08df d1bd 0ec7 c2bd 9e67 50ba
000002e0: 6d10 a53c 7414 863b e8c0 93bd 7bba dfbb
000002f0: c9b2 d2bd 5085 bfbd 7808 cf3d 9ee3 f33d
00000300: 6df1 2cbd a518 5a3c 21dd 2cbd 52dd 7dbd
00000310: bdee b4bd aaf9 9b3d cc2b 953d 67e5 833d
00000320: 089c b83d e5e6 523c cbf5 283d 54a9 6bbd
00000330: 8c57 ec3c 852f f3bb 5240 533c 2220 803d
00000340: 01b6 a2bd e752 02be 9235 96bd 5929 853d
00000350: 6bf6 75bd a436 9abd ceef 4a3d 7743 a7bd
00000360: 3946 103e 43dc 85bd fa21 d83d b0a8 95bc
00000370: b350 a9bd 3797 2fbc cb0c 33bd dc9a 9dbd
00000380: 877c 013d fbec 053b 85df 9abd 48b5 be3d
00000390: 63ad b23d 24d1 b03c 60db 0f3d 44e8 183b
000003a0: 6d37 99bb ad90 2b3d c9c4 db3d c364 103d
000003b0: 51b3 0fbd bf0e 9abd a03f 56bd 4148 e23d
000003c0: f9bd d3bd 160d 62bd 3973 b23d 416b 7fbc
000003d0: 2457 05be 4330 1fbd af32 cf3d 1c3d 243e
000003e0: 1a4d f3bd 3520 1abd cdef 77bd 09e4 723d
000003f0: 645a aebc b1f3 eabd 4bbb a8bc e310 bd3c
-0.090038694 -0.007101011 -0.04995929 -0.12961219 0.1402396 0.12969752 -0.11032132 0.045797806
0.06010657 -0.053691547 -0.082126714 -0.143664 -0.034554567 0.14608511 -0.09043724 0.08494907
0.0576433 0.010206098 -0.0014352702 -0.0719839 -0.013247187 0.14270404 -0.054332037 -0.0398683
-0.10595355 0.039971627 -0.08852887 0.079392135 -0.028453102 0.035360456 -0.0005799182 -0.13270937
-0.057249032 0.097450174 0.11231177 -0.087604955 -0.093594655 -0.013581334 -0.04931823 0.10567696
0.08532542 -0.08671563 0.048220377 0.016784096 -0.015364253 0.10370314 0.08081845 -0.0874981
0.024459265 0.007871985 0.09054601 0.038776614 0.11038222 -0.07438883 0.017215885 -0.08529456
-0.10594479 -0.04268832 0.022027913 0.009979297 0.019189846 -0.052355718 -0.15813075 0.0006332837
0.037257727 0.06805929 -0.08716168 0.017746996 0.0045233346 0.0022756811 -0.04834278 -0.06308253
-0.05458711 0.08849327 0.12238384 0.04721816 0.11022251 0.11958376 -0.09833469 -0.0024338588
0.01830005 -0.090383045 -0.004600191 0.054405484 0.09938441 -0.09641207 0.07553358 -0.00908117
0.10967363 0.007976231 -0.046347626 -0.059607856 -0.017481599 0.066392854 -0.03589738 0.09637512
0.01401615 0.037895937 0.0053404747 -0.11651488 0.0122413095 -0.056502815 -0.083346605 -0.10266506
-0.071613096 -0.006621488 -0.10702457 -0.100761846 0.0075625214 -0.095366105 0.13676396 -0.05776762
0.08297691 -0.061352897 -0.033716723 -0.0007370826 -0.12231306 -0.096897535 -0.0010816614 0.125835
-0.01192793 -0.04019073 -0.124726266 -0.061793663 -0.007123994 0.019803708 0.073665604 -0.04459356
0.043605577 -0.13562368 0.1352145 -0.024808988 0.064826004 -0.03123299 0.1116659 0.09525881
-0.02482258 -0.06746001 -0.015291583 0.005699385 0.100231335 -0.031431008 -0.05220652 -0.106705904
0.045514837 -0.10667953 0.091106065 -0.04019906 -0.12624101 -0.016935566 -0.037279595 -0.082750626
-0.029835325 0.051101808 0.056903988 0.018680625 0.061572596 -0.06331902 -0.11460161 0.10438014
-0.0396795 -0.09720689 0.09154498 0.0421335 0.0040147975 -0.0007366843 -0.10125817 -0.0214612
-0.0032539752 -0.06858863 -0.09447254 0.047265597 -0.090285175 -0.061359283 -0.027205097 0.04611925
0.119133346 0.059197385 0.06123738 0.096809596 0.05307283 -0.10247618 -0.09510623 -0.00079500105
0.020149434 0.0040917937 -0.07214528 -0.00682765 -0.10288007 -0.09351599 0.10109037 0.11908649
-0.04222243 0.01331154 -0.042203072 -0.061978646 -0.08834598 0.07615979 0.07283744 0.064402394
0.090141356 0.012872432 0.04125003 -0.05753453 0.02885034 -0.0074214363 0.012893753 0.06256129
-0.07944871 -0.12726937 -0.073344365 0.06502027 -0.060049456 -0.07529953 0.0495451 -0.08167165
0.14089288 -0.06536152 0.105533555 -0.018268913 -0.08267345 -0.010717205 -0.043713372 -0.07695553
0.0316129 0.002043544 -0.07562164 0.093119204 0.08724477 0.021584101 0.03512132 0.00233318
-0.0046757967 0.04188602 0.10730893 0.035252344 -0.03508312 -0.07522344 -0.05230677 0.110489376
-0.10338969 -0.05518826 0.08713383 -0.015589536 -0.13021523 -0.038864385 0.10117089 0.16038936
-0.1187994 -0.03762837 -0.060531426 0.059299503 -0.021283336 -0.11472262 -0.02059712 0.023079341

lstm.weight_hh_l1 f4 [256, 64]
00000000: e1cf 893d 3150 aa3d 91f6 bb3c 8002 c43d
00000010: ac5a 6ebc bcfe 473d 6a2a 84bd a5a9 f4bd
00000020: 3fd5 ed3d 8e6e 403c bd13 023d cc42 323c
00000030: de4b e2bc abdf fa3d 3562 33bd 9805 b53d
00000040: 875e c03d b294 0dbe 2ddf 80bd 811a e13d
00000050: cedf a6bd 64dd 1c3c 336e ff3d 5200 fbbc
00000060: a3a9 fdbc 2271 86bd f627 033e e55f dd3d
00000070: 5747 d33d c7e9 3dbd 9e25 f5bc 94de 993d
00000080: 0676 0ebe 228b 03be 60a7 343d 749b 53bd
00000090: 8ef7 b13d b119 c43c d8c8 dfbd d108 623d
000000a0: 045c 7f3d 9a5f 033e 40d2 8bbc 1b6c d93d
000000b0: 2058 fa3d e4a1 94bd 3bc2 77bc 2834 403d
000000c0: a3e4 c1bd 2076 1dbd a1d4 2fbb 5fc3 e13c
000000d0: cfa5 ca3a 62c0 1dbd 059b d33d 3ccf f1bd
000000e0: 4e16 833d 99ad d73d 2f59 a83d 8079 3abd
000000f0: 5a9b c5bd 2833 ac3d cbae 103a 51ae b8bd
00000100: d940 ef3c 1683 ecbd fb7a c0bd ad87 973c
00000110: 4eb0 38bd 86f5 4f3d baf4 81bd cf96 8cbc
00000120: 63a7 dd3d aafe f63d 83f1 06bd d4bc 253d
00000130: 501f 2abd 657d eb3d 78c7 d0bc d273 aa3c
00000140: e5d8 dcbd 18b9 933d 3eee 2cbd d8be 7d3d
00000150: 126b 97bd 50bd 20bd f830 a83d 11e4 00bc
00000160: 255a 413d de05 9e3b 14ec 153d a13f 97bc
00000170: 7b38 903d 5b9e 4cbd 2bba 4bbc aaa9 443d
00000180: 0971 293d d977 5cbd 8807 c23c 26a4 aa3d
00000190: 3589 ad3d 0b38 b53d 1153 2b3b 2d11 28bd
000001a0: af64 13be 157b cb3c ba3f bebd 5860 853d
000001b0: d520 a63c f66e 113d 599a 55b9 7ee6 76bd
000001c0: fd21 963d 31da a93c 112a b93c 436c 393d
000001d0: 1091 0c3e 22c9 e13d 5a97 ad3d 1b6e 64bd
000001e0: 6441 58bd 6f57 01be b443 613c 633a 9e3d
000001f0: 33f2 153d 48f0 ebbb 3708 223d 0dbc a63d
00000200: 5a07 883d 127a 44bd 9ac5 97bd 2e31 fdbd
00000210: a756 93bd f3c2 12be 3e9c 883c 165a c13d
00000220: 82ce 01be 0e60 873c a4d5 953d d578 4d3d
00000230: 50d2 10be 3dab bdbd 4ce0 82bd 1322 893c
00000240: 5b1f a23d 86dc 093d 2bd6 9bbd c626 463d
00000250: 3dd8 d53d 7cf0 b8bd cc27 e8bd a981 dc3c
00000260: 5e07 183c 7709 adbd 87e6 02bc cc7b 9a3d
00000270: efbd 7ebd 472f b7ba ddde 123e 0b47 133e
00000280: bac1 4bbb 2efa 5cbd 1925 b2bd 6abb a0bd
00000290: 69de d0bb 07cc ca3d 3b3e 193e 207f ab3d
000002a0: b608 9a3d a5af 2c3d bcf8 823b f1ef 483d
000002b0: 9021 3a3d 23fa 01be 56b8 a9bd 07d2 3bbd
000002c0: 275c 1d3e 4472 3cbd b85a d5bd efc3 bbbd
000002d0: 33f7 2a3d c6b3 073e dd22 82bd 18c4 9d3c
000002e0: b6f9 eebd 08e2 03be 8010 48bc 8002 f23c
000002f0: 5c74 cf3d 67ca 97bc 3825 b0bb c1bf 3e3b
00000300: ab77 fbbd 8b57 d43c a2ab 2fba 4c55 983d
00000310: f677 a73d 32eb 133d bf12 68bb 9c4a c2bd
00000320: 3d15 68bd df2b 2f3d 6db0 86bd 70f1 4b3d
00000330: b019 fb3c 0ca3 f4bd 3728 483d e5da 0c3d
00000340: b8d0 22bc e633 043e 24d8 913d 6da6 ffbd
00000350: 101f c03d c1e7 cabc f752 db3c d5ec dbbc
00000360: 87f1 86bc cf9f 2a3d 3cda 0cbe 42b6 9bbc
00000370: 96db b9bd b40d 243e 6454 33bd 22a6 a23d
00000380: 56ef 6e3d c0ed 073e 26e0 b23b 8700 0a3d
00000390: 0289 3fbd 0560 16be e570 153e 827c a43c
000003a0: 17f9 8d3d 1148 fbbd 4cc4 e5bd fca2 84bd
000003b0: 21b5 1bbe 1a4b 23be e9b4 1e3d 1edf 253d
000003c0: 6868 b53b 2101 173d 9bba b23d 0001 fdbd
000003d0: 8f3f a93d 6cdc aebd 4362 3a3d 6123 863d
000003e0: dfb9 073d 0fbb b43c 27e0 b73c d030 d4bc
000003f0: 20c6 463d bf86 513d 96d9 9b3d 11e6 c63a
0.06729103 0.083160765 0.02294472 0.09570789 -0.014547985 0.048826918 -0.06453402 -0.119464196
0.11612939 0.011745108 0.031757105 0.010880183 -0.027624067 0.122496925 -0.04379483 0.088389575
0.0939303 -0.13826254 -0.062925674 0.10991383 -0.08148156 0.009574268 0.12472191 -0.030639801
-0.030964678 -0.06564547 0.12808213 0.10809306 0.10316341 -0.046365526 -0.029925164 0.075131565
-0.1391221 -0.12846044 0.044104934 -0.051661924 0.086897954 0.023938032 -0.1092698 0.05518419
0.062343612 0.12829438 -0.017068028 0.106163226 0.1222384 -0.07257441 -0.015121992 0.04692474
-0.09467437 -0.03844273 -0.0026829618 0.02755898 0.0015460792 -0.03851355 0.10332302 -0.11807105
0.06400739 0.10531158 0.082201354 -0.045526028 -0.096487716 0.08408195 0.000551921 -0.09017623
0.029205726 -0.1154844 -0.09398457 0.018497312 -0.045090012 0.05077126 -0.06345506 -0.017161755
0.10822942 0.12060292 -0.032945167 0.040463284 -0.04153377 0.114985265 -0.02548574 0.02080718
-0.10783557 0.07213038 -0.042219393 0.06194958 -0.07393469 -0.039243042 0.08212465 -0.007866875
0.04720511 0.0048224768 0.036602095 -0.018462958 0.07042023 -0.049955707 -0.012434523 0.048013367
0.041367564 -0.053825233 0.023685232 0.0833209 0.08473436 0.0884858 0.002614204 -0.041032005
-0.14393876 0.024838964 -0.092894986 0.06512517 0.020279327 0.03550621 -0.00020370762 -0.06027841
0.073307015 0.020733925 0.022603067 0.045269262 0.13727212 0.11024691 0.08476134 -0.055769067
-0.052796736 -0.1263101 0.013749052 0.0772598 0.036607932 -0.0072002746 0.039558616 0.081413366
0.06642027 -0.047967978 -0.074107364 -0.12362896 -0.07194262 -0.1433218 0.016676065 0.09441011
-0.12676433 0.016525295 0.07316139 0.050164063 -0.14142728 -0.09261177 -0.063904375 0.01673988
0.07916137 0.033657573 -0.07609209 0.04837682 0.10441635 -0.09030244 -0.11335716 0.026917296
0.0092791 -0.08449071 -0.007989532 0.07543144 -0.062192854 -0.0013975882 0.14342828 0.1438257
-0.0031090812 -0.053949527 -0.08698482 -0.078482464 -0.0063741696 0.099021964 0.14965145 0.083738565
0.07521193 0.042159695 0.0039969366 0.04905695 0.045442164 -0.12693076 -0.082871124 -0.045854595
0.15367185 -0.04600741 -0.10417694 -0.09168231 0.041739654 0.13252172 -0.06354306 0.019258544
-0.11668722 -0.12879193 -0.012210965 0.029542208 0.10129616 -0.01852913 -0.0053755306 0.0029105993
-0.12278684 0.02592065 -0.00067012955 0.07438144 0.081771776 0.03611297 -0.0035411564 -0.09486887
-0.05666088 0.042766448 -0.06576619 0.0497908 0.030651897 -0.11945161 0.048866477 0.03438844
-0.009937458 0.12910423 0.07121304 -0.12482915 0.09380925 -0.024768712 0.02677296 -0.026846329
-0.016472591 0.04165631 -0.13755125 -0.019007806 -0.09075086 0.16020852 -0.043781653 0.079418436
0.058333717 0.13274288 0.0054588495 0.03369191 -0.04676152 -0.14685066 0.14593847 0.020078901
0.06932276 -0.12269605 -0.11219081 -0.06476399 -0.15205814 -0.15946618 0.038746748 0.040495984
0.005536128 0.03686631 0.087269984 -0.12353706 0.08264076 -0.08538136 0.045503866 0.06549717
0.033136245 0.022061853 0.022445751 -0.025902182 0.04852879 0.051153895 0.076098606 0.0015174766

lstm.bias_ih_l1 f4 [256]
00000000: 6a09 ac3d 8a4e d0bd 5a0c 043d 4da3 afbd
00000010: 8c4b 81bd 1ff8 c8bb d60a cbbc b6ab c73d
00000020: 6b3b d13d 21a9 bbbd cee8 b4bb a89a 26bc
00000030: 1d2f 22bd 8690 9b3d 69a6 983d 87a9 94bd
00000040: d11e 0b3e 6f72 b83d 1785 2dbd c736 bb3d
00000050: 3860 90bd 303e 953d ca09 2d3d 8bd8 c7ba
00000060: 8660 f73d 21b3 603d 00ac b1bd 88fc 17bd
00000070: 11b6 533d 812f 8d3d 8ed5 90bd f0d3 ab3d
00000080: ce45 84bd e9f6 93bd 0325 c3bd 378b a5bc
00000090: 0fa5 d83d fe36 893c 56ba 4bbd 6c38 4ebc
000000a0: 835d b03d 56b3 94bd 0b05 2c3b 6433 14bd
000000b0: c448 af3d c43c 893d cc78 ea3c a065 c0bc
000000c0: 4378 c1bd 128c 4ebd 41dc 7fbd 21df 9c3c
000000d0: 6599 b93d 8742 313d 56f9 d13d 827b ef3d
000000e0: 2fb3 64bd e8f9 dcbd 77f0 b43d ff00 f03d
000000f0: a4b8 7c3d 7c07 803d fee6 b33d ad20 123e
00000100: 3c51 e73d 895f 14bd c25a 88bd 2151 7a3d
00000110: 9ef8 cb3b 4234 d1bd 269d c23d 5240 2dbd
00000120: cda0 423c 44cf 163e 425e 053e bd77 a1bd
00000130: 678f ccbd b87d a4bd e68a a2bd dacb dbbc
00000140: 885e d7bc 7c63 ab3b c2f5 cbbd 732e 50bd
00000150: b0b2 c73d fe6f d2bb 6ed3 b73d eee3 973d
00000160: a611 e23d 93de 333d 13ab 113e 3715 033e
00000170: a485 cc3d 9431 9d3d 890b 313d a12f 59bb
00000180: 9b57 6fbd 23b3 1c3d 0f28 b23d b9b3 1e3d
00000190: b1c6 8c3d 39a5 a43c 5f8a 3bbd 4952 0d3e
000001a0: aa1b 023e 6cd6 46bd ddb5 ad3d cf6b 2e3d
000001b0: fa6e cf3c 01b1 a63c 6ef4 d63d f032 d13c
000001c0: fa24 0c3d efcc e5bc fa6f 773d 9f23 bb3c
000001d0: 309c 103e 1b42 a3bd a108 ee3d 5ca9 cf3c
000001e0: ffd4 ec3d 07ef 813d bdc7 b23d 875d e93d
000001f0: 4369 ad3d 4c82 82bd fcb1 77bc 7b72 5a3d
00000200: cd52 2e3d fd89 b1bc 2436 b7bc 1b63 06bd
00000210: ff1d a0bd b5b9 143d 7d59 49bd 8efe 93bd
00000220: 25bb 9dbd 2d30 9fbd 4d1e ddbc 0ac8 ff3d
00000230: c0c2 c13d 3f7d 2abd ef2b 07be 473e e7bd
00000240: 3693 f5bc afca 1e3d cef5 863c 5c5e acbc
00000250: 5197 3cbc 8313 7c3d 1f5b adbd 8b8b 363d
00000260: 9800 d6bd 93a3 113d 74ec 4fbd dcdc a7bd
00000270: a6fb 8c3d 8956 e1bd edb3 f9bc 046a a03d
00000280: 0797 f2bd f834 743c 0a15 c73d 18f8 b4bd
00000290: 53ff f03a 3cf8 c0bd 9fd2 803d 723e 0cbc
000002a0: 17e6 debd 48f0 8e3d b579 c63d 4928 973d
000002b0: f121 3e3c b9ee 40bd 7d7d acbc 86e8 a5bd
000002c0: 7b5d d63d 09d4 28bd 6d12 bfbd 297e 01be
000002d0: 4219 823d 58e3 d8bd 1dde 013d ea2b ddbc
000002e0: 4c60 873d f50b 133d 2e71 043e 73f6 05be
000002f0: 6875 80bc 6778 643c 219f a53d 4a02 f7bd
00000300: 317b 6fba cac8 b9bd 80e4 aebd 25c7 023e
00000310: f506 99bd 477c a1bd 92a0 fb3d 99f6 943d
00000320: 7970 1f3d c759 0b3e c708 983d ce59 6d3c
00000330: 8a32 783d 81d5 30bd 8889 ad3d 5658 b23c
00000340: 31d4 9e3d 8a97 1b3d d588 cf3d a147 8cbd
00000350: 6714 a03d d79b e13c 729a 8c3d 4ab7 bbbc
00000360: 4509 adbc 9fcb a93d 6228 c43a 7e90 073d
00000370: 2765 ecba f3d8 84bd 3490 703d 2e8d 1dbb
00000380: 5105 cb3d c779 81bc 90a7 96bd a0fc 853d
00000390: a251 013e deb3 ffbc 42d1 79bd d59b 0a3e
000003a0: 59ca bfbd ed3e 143e 98bd 953d 78f0 cdbc
000003b0: 97fc 47bd 4cd4 e83d 654f aabd 6dee e1bc
000003c0: 66cc e1bb 8ac2 e63c f30c 283d 5db7 2d3d
000003d0: 9282 4cbc d661 293d ff35 99bc d13d 103d
000003e0: 3d41 51bc 792a f03d 1da1 90bd a4aa d63d
000003f0: 536d a53d 1ac1 853d 06d4 7c3d a339 d53d
0.08400233 -0.1017123 0.032238342 -0.08576069 -0.063132375 -0.006133094 -0.02478544 0.09749548
0.10216411 -0.09163118 -0.0055209165 -0.010168709 -0.039595712 0.07595925 0.07453615 -0.07258897
0.13585974 0.090062015 -0.042363252 0.09141307 -0.07049602 0.07287252 0.042245664 -0.001524703
0.12078957 0.05485833 -0.086753845 -0.037106067 0.051687304 0.06893826 -0.07071982 0.08390033
-0.06458627 -0.07224829 -0.09528544 -0.020207984 0.105783574 0.016749855 -0.04973825 -0.012586694
0.08611586 -0.07260768 0.0026248123 -0.036181822 0.08558801 0.06701043 0.028622054 -0.023485959
-0.09446766 -0.05042655 -0.06246591 0.019149365 0.09062461 0.043276336 0.10252635 0.11693479
-0.055834945 -0.10789853 0.088349275 0.1171894 0.061699525 0.062514275 0.08784293 0.14270277
0.11294791 -0.036223922 -0.06657936 0.061112527 0.006224706 -0.102150455 0.0950263 -0.04229767
0.011879158 0.14727503 0.13024238 -0.078841664 -0.09988289 -0.080317914 -0.07936649 -0.026830602
-0.026290193 0.0052303653 -0.09958984 -0.050825547 0.09750879 -0.006422042 0.08975874 0.07416521
0.110385224 0.043913435 0.14225416 0.12801062 0.099864274 0.07675472 0.04322389 -0.0033139961
-0.058433156 0.038256776 0.08699047 0.038745616 0.06873835 0.020098316 -0.045786258 0.1380092
0.12705866 -0.048544332 0.08481953 0.042583283 0.025321472 0.020348074 0.1049584 0.025536984
0.03421495 -0.028051822 0.060409524 0.022844134 0.14122081 -0.07971593 0.116227396 0.025349312
0.11564063 0.06344419 0.08729503 0.11394792 0.08467343 -0.063725084 -0.015118118 0.053331833
0.042559434 -0.021672243 -0.022364683 -0.032809358 -0.07818221 0.036309917 -0.04915761 -0.07226287
-0.077017106 -0.07772861 -0.026991988 0.12489326 0.09460974 -0.04162335 -0.13200353 -0.11291175
-0.029977422 0.038767513 0.01647463 -0.021041088 -0.011510686 0.061542045 -0.084646456 0.044566672
-0.10449332 0.035556387 -0.05076261 -0.081964225 0.06883936 -0.110028334 -0.030481303 0.07832721
-0.118452124 0.014905207 0.0972081 -0.08836383 0.001838664 -0.09422347 0.06290173 -0.00855981
-0.1088373 0.06979424 0.096911825 0.07380731 0.011604772 -0.047102664 -0.021055931 -0.08100991
0.10467049 -0.041217837 -0.09329686 -0.12645783 0.06352474 -0.105902374 0.031705964 -0.026998479
0.06610164 0.035900075 0.129338 -0.13082294 -0.015680984 0.013944722 0.08086992 -0.120609835
-0.00091354834 -0.090715006 -0.08539677 0.1277128 -0.0747203 -0.07885032 0.12286486 0.07273597
0.03892562 0.13608466 0.07423549 0.014486743 0.060595073 -0.043172363 0.08473498 0.021770637
0.07755316 0.037986316 0.101335205 -0.068496 0.078163914 0.02754013 0.068653956 -0.022914547
-0.021122584 0.08290791 0.0014965648 0.033096783 -0.0018035517 -0.06486692 0.058731273 -0.0024040448
0.099131234 -0.015805138 -0.07356179 0.06542325 0.12628797 -0.031213697 -0.06099058 0.13536008
-0.09364767 0.1447713 0.07311553 -0.025139078 -0.048824873 0.113686174 -0.083159246 -0.02757951
-0.0068908213 0.028168935 0.041027974 0.042411197 -0.012482302 0.04135307 -0.018702505 0.035215203
-0.012771902 0.11726851 -0.0706198 0.10481766 0.080774926 0.06530972 0.06172564 0.10411384
