03-Dynamic Model Parameter Tuning (LSTM-MLP Frozen Layer)/model_weights_n_11.pth (torch, 523863 bytes, 20 tensors)

lstm.weight_ih_l0 f4 [256, 18]
-0.09774351 0.009104933 0.0067529716 -0.09551038 -0.10315417 0.028111972 0.021251127 0.06395156
-0.06357084 0.049916446 -0.11165589 -0.11124871 0.029490074 0.10438168 -0.033850968 -0.050669804
-0.007116738 -0.05419185 -0.022370419 -0.06889341 0.010707853 -0.1019148 -0.121740215 0.09389944
-0.04648637 -0.0044955043 -0.12973192 -0.1399574 -0.054252565 -0.0006436665 0.035879523 0.010970752
-0.0006142178 -0.03763742 -0.01450281 -0.053311702 -0.000742702 0.06433076 0.013410861 -0.000420024
-0.14928183 0.046546984 -0.046804655 -0.13192174 -0.09325454 0.048833184 0.07472122 -0.10236254
0.12743029 -0.10503771 0.07283589 -0.027545506 0.041808583 0.025113793 0.1291236 -0.007995608
-0.03868779 0.019389765 -0.0013794001 0.040858142 0.10734751 -0.12963787 0.09690942 -0.12363437
-0.1142406 -0.010631057 -0.10313111 -0.051481936 -0.079649284 -0.027431002 -0.023672337 0.033082824
0.015640024 0.090322 0.08750075 0.08190048 -0.027235787 0.047757093 -0.03598498 0.04352372
-0.08600348 -0.10266372 -0.044718742 -0.037582017 0.10057897 0.04008749 -0.06047662 0.021930957
0.07312247 -0.08000965 0.079112194 -0.057178076 -0.0379045 0.014637063 0.020566305 0.09017883
-0.10565243 -0.05005034 0.037598528 -0.064144365 0.050596673 0.034628566 -0.021453036 -0.018360738
-0.13504498 0.0717996 0.07134459 0.028070163 -0.007673586 0.03522277 -0.008586384 -0.019137008
0.057231054 -0.015747983 0.039221264 -0.044915553 -0.06706724 -0.05837802 0.083545946 0.03212263
0.09895476 -0.03787998 0.017076373 0.015095029 -0.10582439 0.022576695 0.09780224 0.027083414
0.044141725 -0.09032226 -0.06732373 0.017034113 0.038174026 0.0207046 0.028593758 -0.07994494
0.08897047 0.121224836 0.035034623 -0.118820086 0.041240744 0.012089229 0.060343504 0.009441421
-0.07457728 -0.090179875 -0.12110103 -0.017831462 -0.028239915 -0.10844512 -0.12888311 -0.018864367
0.11591806 -0.0022776236 -0.12943475 0.12956871 0.13370824 -0.07758607 0.05659093 0.021444187
0.12066556 0.06984446 0.073245764 0.06317034 -0.034556314 0.07942328 -0.017715797 -0.05360812
0.013524741 0.07494667 -0.090595715 0.068790115 0.07914802 -0.02460978 -0.018176192 0.041064505
0.0924736 -0.01968968 0.078189485 0.039961454 0.1467061 0.106155135 0.063027 0.10837568
-0.052962247 0.06362931 -0.02302661 0.005561169 -0.13044086 -0.03312325 0.014368824 0.017669799
-0.117161155 0.050441258 0.060504366 -0.05658196 -0.004136437 0.055263244 -0.084206924 0.072599575
0.020818122 -0.041466374 -0.02205748 -0.10873912 0.092223965 0.061652727 0.05320868 0.010707194
-0.10152107 0.02817427 0.09945293 -0.04466244 -0.05392855 -0.042934977 0.10314057 -0.04354075
-0.1392365 -0.0031395915 -0.047397863 0.039892692 -0.10777135 -0.12446617 -0.104016595 0.08895858
0.05768186 0.04624938 0.0462287 -0.11829157 -0.09500233 0.055496298 -0.0049870834 -0.059298806
-0.06967235 0.100924805 -0.12073459 -0.04932544 0.03505982 0.06449188 -0.12913594 -0.121283345
0.105154105 -0.011728964 0.08232114 0.08782829 0.063896075 0.11952633 0.01793654 -0.093148194
-0.11653075 -0.15156135 0.020865183 -0.045785826 0.07036698 0.048751794 -0.02357021 -0.10004017
00000000: c02d c8bd db2c 153c 0848 dd3b f29a c3bd
00000010: 7e42 d3bd 144b e63c d816 ae3c 09f9 823d
00000020: 6e31 82bd 3075 4c3d d8ab e4bd 5dd6 e3bd
00000030: 2b95 f13c 10c6 d53d 50a7 0abd 248b 4fbd
00000040: 8633 e9bb 46f8 5dbd 2b42 b7bc fd17 8dbd
00000050: fe6f 2f3c b5b8 d0bd ef52 f9bd 594e c03d
00000060: 7e68 3ebd 064f 93bb 72d8 04be fe50 0fbe
00000070: f037 5ebd babb 28ba 68f6 123d abbe 333c
00000080: 7503 21ba b229 1abd 329d 6dbc 5f5d 5abd
00000090: e3b1 42ba d8bf 833d 3ab9 5b3c ab36 dcb9
000000a0: 56dd 18be 0da8 3e3d 3db6 3fbd 7e16 07be
000000b0: 3cfc bebd 4e05 483d 7007 993d 74a3 d1bd
000000c0: 167d 023e 031e d7bd fc2a 953d 1da7 e1bc
000000d0: 7a3f 2b3d 71bb cd3c fa38 043e 0300 03bc
000000e0: 1777 1ebd 49d7 9e3c fdcc b4ba de5a 273d
000000f0: 03d9 db3d cabf 04be 7278 c63d 0434 fdbd
00000100: faf6 e9bd e32d 2ebc 6736 d3bd b9de 52bd
00000110: 2a1f a3bd fbb6 e0bc 7dec c1bc db81 073d
00000120: 821f 803c befa b83d 9833 b33d 70bb a73d
00000130: 961d dfbc f19c 433d fd64 13bd ee45 323d
00000140: 9822 b0bd 5b41 d2bd 002b 37bd 9aef 19bd
00000150: 59fc cd3d c832 243d 55b6 77bd 8da8 b33c
00000160: 3cc1 953d 19dc a3bd 9305 a23d 8f33 6abd
00000170: c041 1bbd 4bd0 6f3c ab7a a83c aeaf b83d
00000180: 4d60 d8bd 9601 4dbd ea00 1a3d 1f5e 83bd
00000190: 753e 4f3d afd6 0d3d 47be afbc 4269 96bc
000001a0: 3b49 0abe ab0b 933d 1d1d 923d 66f3 e53c
000001b0: b472 fbbb c045 103d e8ad 0cbc 37c5 9cbc
000001c0: 1c6b 6a3d ea01 81bc 7aa6 203d 5ff9 37bd
000001d0: 8d5a 89bd ca1d 6fbd 231a ab3d 0593 033d
000001e0: cba8 ca3d 0a28 1bbd c0e3 8b3c 2451 773c
000001f0: 75ba d8bd c3f2 b83c 8a4c c83d 09de dd3c
00000200: f4cd 343d e1fa b8bd 06e1 89bd 208b 8b3c
00000210: 5e5c 1c3d b19c a93c 753d ea3c 2cba a3bd
00000220: 2636 b63d ba44 f83d 7780 0f3d f257 f3bd
00000230: 0eec 283d e711 463c c02a 773d 31b0 1a3c
00000240: f9bb 98bd 3ab0 b8bd d103 f8bd 4913 92bc
00000250: 6557 e7bc 7a18 debd eff9 03be 7289 9abc
00000260: 7366 ed3d 2f44 15bb 8b8a 04be a9ad 043e
00000270: d0ea 083e 72e5 9ebd e4cb 673d b8ab af3c
00000280: 811f f73d 9d0a 8f3d e001 963d 745f 813d
00000290: ec8a 0dbd aca8 a23d b820 91bc 3094 5bbd
000002a0: e096 5d3c a47d 993d 3f8a b9bd d5e1 8c3d
000002b0: 5b18 a23d 739a c9bc 3de6 94bc 4133 283d
000002c0: cc62 bd3d 404c a1bc cf21 a03d 9fae 233d
000002d0: 203a 163e dd67 d93d 4d14 813d 12f4 dd3d
000002e0: f1ee 58bd 1550 823d 4da2 bcbc 773a b63b
000002f0: 4a92 05be 3fac 07bd 376b 6b3c 41c0 903c
00000300: 30f2 efbd 7e9b 4e3d 6dd3 773d 7cc2 67bd
00000310: f38a 87bb b65b 623d ae74 acbd 16af 943d
00000320: c48a aa3c a5d8 29bd e3b1 b4bc 9eb2 debd
00000330: ebdf bc3d 9287 7c3d 58f1 593d 3a6d 2f3c
00000340: 47ea cfbd bacd e63c faad cb3d f6ef 36bd
00000350: 2fe4 5cbd 96dc 2fbd 5d3b d33d c957 32bd
00000360: 0394 0ebe 9bc1 4dbb 4324 42bd 8566 233d
00000370: 3ab7 dcbd 1fe8 febd a706 d5bd ea2f b63d
00000380: d043 6c3d fd6f 3d3d 4e5a 3d3d da42 f2bd
00000390: 9590 c2bd 1650 633d b06a a3bb 4ee3 72bd
000003a0: 61b0 8ebd aab1 ce3d b243 f7bd 7909 4abd
000003b0: e39a 0f3d 5214 843d 363c 04be 6763 f8bd
000003c0: 095b d73d d72a 40bc fc97 a83d 52df b33d
000003d0: f2db 823d 38ca f43d a7ef 923c 7bc4 bebd
000003e0: ada7 eebd e632 1bbe 76ed aa3c eb89 3bbd
000003f0: 901c 903d f6af 473d 5016 c1bc dce1 ccbd

lstm.weight_hh_l0 f4 [256, 64]
0.09118494 -0.064248055 0.04512611 -0.08012876 0.02526222 -0.025830457 -0.056672957 0.048642218
0.09571434 -0.092992514 0.04401868 -0.054064065 0.107014336 0.10619136 -0.0139719285 0.0004647297
0.066510364 0.0010168753 0.036989998 -0.06386674 0.10705993 -0.021446407 0.06110512 0.03372433
-0.08164301 -0.10270272 0.011413556 0.02927618 -0.04425004 0.04726987 0.01703157 -0.09436343
0.112054765 -0.0727802 -0.1368218 -0.089298494 0.05723123 -0.1087118 -0.014997181 -0.115584426
-0.031195445 -0.016364612 0.015044758 0.083247684 0.066658884 -0.037388504 -0.017596018 -0.0007027641
-0.09067415 -0.04895222 0.09717816 0.04847177 0.04635925 0.037911806 0.025534257 0.05888538
0.052571274 -0.0017208642 0.002213929 0.053425293 0.07046448 0.091237776 0.11106969 -0.09685364
-0.029555656 0.044309855 -0.078953244 0.10639144 -0.03251548 0.09410269 -0.03855713 0.032982837
0.12750097 0.08485219 0.12512885 -0.1194839 -0.022842027 0.14558604 0.02671137 0.089513004
0.083221726 0.11326261 -0.03997579 -0.063410945 0.14350848 -0.046365626 -0.036745273 0.0860687
-0.07563909 0.02857528 -0.06745414 -0.09925456 -0.0008978659 -0.037109025 0.13422109 -0.06945544
0.03879814 0.06516072 0.03772826 -0.13915172 -0.020034937 -0.061607096 0.053193085 -0.0036273608
0.023341775 -0.063137464 -0.0032109537 -0.10306965 0.06581021 -0.03489498 -0.07306655 -0.09786133
0.0852543 -0.027687598 0.0270794 0.00028361342 0.067758635 -0.10985366 -0.049933717 0.050427083
-0.016823623 -0.05208218 0.06969948 0.041694574 0.1282495 0.12453321 0.07055229 -0.14543374
0.106759176 -0.15043242 -0.033708006 -0.09579315 0.025137434 -0.025631122 0.13351233 0.0062564774
0.043002713 -0.036842916 0.15016164 -0.053418845 -0.05232141 0.010973003 -0.11948955 7.557156e-05
0.026342353 0.13565077 0.08307576 0.059797812 0.12453 -0.060898084 -0.027549585 -0.0951397
-0.08245199 -0.0928197 0.04447419 -0.113749556 0.032739002 0.12237207 -0.016847078 -0.11338336
-0.048388243 0.07861736 0.023117334 -0.032000657 -0.0710212 -0.07410885 -0.054676965 -0.12405627
0.08007258 -0.0353607 -0.123958796 0.07333907 -0.1133494 0.011897557 -0.14649054 0.05941707
-0.013000368 0.059095446 0.04746286 0.01929789 0.07663166 0.079258375 -0.06237858 0.042637046
-0.02937245 -0.09320107 -0.0009281827 -0.044611238 -0.09623446 -0.030922372 -0.04215344 0.097124256
0.023910707 -0.1277835 -0.07028856 -0.056351252 -0.13778844 0.0139041 0.063485295 -0.047460508
-0.07114089 -0.07223925 5.6754467e-05 0.09650434 0.08856894 -0.029997163 0.09913136 0.04425457
0.036530923 -0.043673206 -0.08089088 0.114355944 0.10311314 -0.008083709 -0.023290534 -0.091580294
0.07814509 0.09465654 0.050850768 0.091203086 0.11524589 -0.020717453 -0.05939435 0.094576694
0.11608573 0.0018542703 -0.043533087 -0.04355499 -0.0805603 0.09643884 0.044021223 0.03327717
0.078474574 -0.085413076 0.0103360005 -0.0075607584 -0.094535254 -0.071285404 -0.0741962 -0.12232855
0.10031421 -0.120517366 -0.035418693 0.061509646 -0.10895576 0.017135553 -0.0045465846 -0.10869609
0.05424213 0.08355025 0.10324644 -0.098571755 -0.05564847 -0.08795333 -0.007993336 0.033088375
00000000: 2bbf ba3d 7c94 83bd 28d6 383d 8c1a a4bd
00000010: b7f2 ce3c 659a d3bc e721 68bd 103d 473d
00000020: e105 c43d dc72 bebd ee4c 343d 4872 5dbd
00000030: 552a db3d db7a d93d 84ea 64bc f7a6 f339
00000040: 9636 883d ac48 853a d382 173d 91cc 82bd
00000050: 3d42 db3d 60b0 afbc 5d49 7a3d 8622 0a3d
00000060: 7334 a7bd ce55 d2bd ecff 3a3c 99d4 ef3c
00000070: 883f 35bd 0d9e 413d cb85 8b3c 9d41 c1bd
00000080: f87c e53d c90d 95bd 041b 0cbe 21e2 b6bd
00000090: 4b6b 6a3d 4ba4 debd bcb6 75bc 87b7 ecbd
000000a0: 978d ffbc 140f 86bc 4a7e 763c c37d aa3d
000000b0: 7484 883d b024 19bd 8625 90bc b339 38ba
000000c0: 5eb3 b9bd 1f82 48bd 5805 c73d 568a 463d
000000d0: 32e3 3d3d 6949 1b3d 382d d13c cc31 713d
000000e0: fa54 573d 9f8e e1ba 9117 113b 7bd4 5a3d
000000f0: ae4f 903d dfda ba3d 8178 e33d 345b c6bd
00000100: b41e f2bc 407e 353d 3db2 a1bd c1e3 d93d
00000110: f42e 05bd e9b8 c03d 15ee 1dbd 0319 073d
00000120: 9d8f 023e fcc6 ad3d c721 003e fab3 f4bd
00000130: 341f bbbc 8214 153e ced1 da3c 9852 b73d
00000140: 2770 aa3d 3af6 e73d a7bd 23bd 99dd 81bd
00000150: e3f3 123e e2e9 3dbd 3682 16bd c944 b03d
00000160: abe8 9abd b516 ea3c 6525 8abd fa45 cbbd
00000170: c35e 6bba a2ff 17bd 4171 093e a73e 8ebd
00000180: ccea 1e3d fc72 853d f388 1a3d ca7d 0ebe
00000190: 4f20 a4bc b957 7cbd fee0 593d 04b9 6dbb
000001a0: 4037 bf3c 374e 81bd dd6e 52bb 2e16 d3bd
000001b0: 81c7 863d 0aee 0ebd eaa3 95bd 856b c8bd
000001c0: ce99 ae3d 1ad1 e2bc 9ed5 dd3c f3b1 9439
000001d0: 0ac5 8a3d f5fa e0bd 4c87 4cbd a18c 4e3d
000001e0: b2d1 89bc 2054 55bd 9abe 8e3d eec7 2a3d
000001f0: d653 033e 450b ff3d b87d 903d 95ec 14be
00000200: 8ea4 da3d f50a 1abe 6811 0abd 332f c4bd
00000210: 05ed cd3c 5cf8 d1bc 75b7 083e 2303 cd3b
00000220: 9d23 303d 99e8 16bd f9c3 193e b8cd 5abd
00000230: fa4e 56bd 1cc8 333c f0b6 f4bd 2c7c 9e38
00000240: ebcb d73c 09e8 0a3e a023 aa3d 8dee 743d
00000250: 9609 ff3d 4570 79bd abaf e1bc 9ad8 c2bd
00000260: 97dc a8bd 4118 bebd 912a 363d 87f5 e8bd
00000270: 5519 063d 359e fa3d e202 8abc 8935 e8bd
00000280: c032 46bd 2302 a13d 9060 bd3c 1f13 03bd
00000290: 9073 91bd 61c6 97bd f4f4 5fbd 3711 febd
000002a0: 18fd a33d 62d6 10bd 1cde fdbd cb32 963d
000002b0: bb23 e8bd f9ed 423c 9e01 16be 505f 733d
000002c0: 7fff 54bc 110e 723d 6a68 423d 9c16 9e3c
000002d0: 0ff1 9c3d 3752 a23d af80 7fbd 2fa4 2e3d
000002e0: 7e9e f0bc 34e0 bebd 4951 73ba 46ba 36bd
000002f0: 9316 c5bd ea50 fdbc 16a9 2cbd 15e9 c63d
00000300: 63e0 c33c aed9 02be 73f3 8fbd 92d0 66bd
00000310: 6a18 0dbe 06ce 633c 9404 823d f365 42bd
00000320: 51b2 91bd 2cf2 93bd a50b 6e38 11a4 c53d
00000330: a263 b53d 9cbc f5bc 6205 cb3d 4844 353d
00000340: 73a1 153d ade2 32bd 1eaa a5bd 7333 ea3d
00000350: fb2c d33d 8871 04bc cacb bebc 738e bbbd
00000360: 880a a03d 4adb c13d e548 503d afc8 ba3d
00000370: 0a06 ec3d a6b7 a9bc 7d47 73bd 6db1 c13d
00000380: 5bbe ed3d fd0a f33a c04f 32bd b866 32bd
00000390: ccfc a4bd ba81 c53d 994f 343d a44d 083d
000003a0: 47b7 a03d 0ded aebd 5458 293c 3dc0 f7bb
000003b0: b39b c1bd 15fe 91bd 2df4 97bd 6487 fabd
000003c0: 8971 cd3d cfd1 f6bd 3113 11bd 8af1 7b3d
000003d0: 3324 dfbd dc5f 8c3c 84fb 94bb 0e9c debd
000003e0: ff2c 5e3d 651c ab3d df72 d33d fddf c9bd
000003f0: a6ef 63bd e020 b4bd 7bf6 02bc ad87 073d

lstm.bias_ih_l0 f4 [256]
0.1322875 -0.020377997 0.08356225 -0.08634161 0.07225753 0.07116594 -0.060511358 0.034427166
0.027640115 -0.030715033 -0.01341017 0.08637196 -0.048014425 -0.03837827 -0.013860656 -0.08495985
0.029851245 -0.070552886 -0.055131305 -0.09135659 -0.071573384 0.045881238 -0.0867649 0.020095078
0.023318691 0.070606925 0.055350505 0.0051432047 -0.091250725 0.11864937 -0.0898915 0.058756962
0.1240635 0.096605524 0.05297288 0.07215185 -0.043050434 -0.1081933 0.13000078 0.0041913623
-0.03208342 -0.049849078 0.08466641 -0.07885499 -0.026272232 0.08335348 -0.07743749 0.10704845
0.12996538 0.11735624 -0.102867685 -0.055844847 -0.08521619 0.094916545 -0.011670008 0.056978337
-0.095512256 0.051169846 -0.035852287 0.03055312 -0.07014165 -0.0074391095 -0.06697011 -0.03993971
-0.076619014 0.12557745 -0.043877028 -0.051223375 -0.00797063 -0.0062897685 0.07146855 0.06720013
0.038601223 0.060777124 0.08689804 0.063865565 0.13417594 0.07112472 0.13686113 0.07479827
-0.08574909 0.041092847 0.116655946 -0.06306798 -0.010241985 0.08040777 -0.007278009 0.011891305
0.12710948 -0.007440579 0.079273574 0.13044742 0.04420694 0.020893218 0.106726505 0.08001102
-0.03719803 0.12497231 0.05762307 -0.051124968 -0.106930666 0.047719065 -0.085593455 -0.12058292
-0.019148877 0.018112922 0.032889172 0.0798745 -0.060491323 -0.067021765 -0.07894435 0.14281394
-0.10619204 0.04997812 0.035784487 0.052531883 0.12172407 0.0056125517 -0.04063675 -0.06545807
0.046776872 0.034548253 0.10441517 0.09036537 0.11649754 0.11672738 0.13022159 0.031737473
-0.058785312 -0.025301933 0.13821833 -0.08824913 -0.11871881 0.06340268 -0.044638243 0.030009504
0.07924217 0.115916684 0.03516134 0.13543439 0.033068497 0.09292468 0.02317717 -0.0015038954
0.050347038 -0.12923278 -0.12552193 0.0676915 -0.052563805 -0.07901205 0.05128954 -0.010046146
-0.02095189 -0.041413583 -0.035168864 0.030553684 0.112331025 -0.08507145 -0.04050568 -0.010087759
-0.019839782 0.06676631 -0.07886283 0.043440897 0.05176179 -0.004401239 0.06563393 0.004845802
0.09435099 0.07699771 -0.090917684 0.012536407 0.09763297 0.054332986 0.07814965 -0.098950356
0.11806192 -0.055857517 -0.026250111 0.030963395 -0.064834826 0.077248305 -0.12853326 -0.0048213787
-0.1270618 0.13078107 -0.108558014 0.12056664 -0.05179866 0.05866658 0.13793159 -0.0036582644
0.07990497 0.020620942 0.03295353 -0.026052663 -0.035097737 -0.06171242 0.1035197 -0.022069862
0.06281356 0.0407789 -0.09652823 -0.10094659 0.08381029 -0.029377708 0.012513835 -0.025559235
0.10525815 -0.09063065 0.04724141 0.029556824 0.14094785 -0.020864505 0.088290624 0.13184904
0.013969435 -0.044985026 -0.024760243 -0.05622541 0.008431983 0.0678523 0.07156336 0.1310193
-0.09877509 -0.060027987 -0.002384628 -0.061059635 -0.005227844 -0.024957245 -0.046723492 -0.035074044
-0.030376365 0.030867012 0.009868515 0.061262902 0.059101596 0.077526376 0.05606247 -0.059477933
0.04178435 0.070064224 0.07651489 -0.10562949 0.076496854 -0.05698524 -0.055044346 -0.01325191
0.045442905 0.001268229 0.13156535 -0.062365476 -0.09739841 -0.0914931 -0.101647444 0.05007841
00000000: 6076 073e c2ef a6bc af22 ab3d dfd3 b0bd
00000010: c2fb 933d 73bf 913d c2da 77bd 8003 0d3d
00000020: 866d e23c 189e fbbc 54b6 5bbc c8e3 b03d
00000030: c6aa 44bd 8832 1dbd ce17 63bc 6eff adbd
00000040: 998a f43c 087e 90bd 5dd1 61bd 2a19 bbbd
00000050: 1195 92bd f7ed 3b3d ccb1 b1bd 6f9e a43c
00000060: d706 bf3c 5d9a 903d 36b7 623d 5488 a83b
00000070: a9e1 babd 71fe f23d 0919 b8bd 24ab 703d
00000080: 0115 fe3d 1ed9 c53d 17fa 583d 59c4 933d
00000090: a755 30bd 7394 ddbd ed1e 053e b257 893b
000000a0: e769 03bd 8c2e 4cbd 9565 ad3d ba7e a1bd
000000b0: dd38 d7bc 3bb5 aa3d 8c97 9ebd 383c db3d
000000c0: a515 053e 7858 f03d 4bac d2bd 91bd 64bd
000000d0: d385 aebd 9b63 c23d 9033 3fbc 1e62 693d
000000e0: ee9b c3bd 7997 513d d9d9 12bd 894a fa3c
000000f0: 6da6 8fbd c6c3 f3bb a027 89bd d297 23bd
00000100: 6eea 9cbd 6097 003e 66b8 33bd 9acf 51bd
00000110: 3f97 02bc 671a cebb 1a5e 923d 39a0 893d
00000120: 511c 1e3d 6ff1 783d 99f7 b13d f3cb 823d
00000130: 6b65 093e d6a9 913d 5325 0c3e d62f 993d
00000140: 389d afbd f950 283d 50e9 ee3d c929 81bd
00000150: 00ce 27bc d4ac a43d 5d7c eebb c0d3 423c
00000160: fd28 023e 1ad0 f3bb 2f5a a23d 0294 053e
00000170: 5612 353d 4128 ab3c 6d93 da3d d1dc a33d
00000180: f65c 18bd 7cf1 ff3d 2b06 6c3d 6a68 51bd
00000190: 77fe dabd 1175 433d 9f4b afbd 2ef4 f6bd
000001a0: 1bde 9cbc 8d61 943c ccb6 063d 3e95 a33d
000001b0: c0c5 77bd b542 89bd 93ad a1bd d13d 123e
000001c0: 367b d9bd dbb5 4c3d c192 123d ac2b 573d
000001d0: 784a f93d 7fe9 b73b b972 26bd e10e 86bd
000001e0: 1b99 3f3d 7882 0d3d 9fd7 d53d 7b11 b93d
000001f0: 4396 ee3d c40e ef3d cf58 053e 27ff 013d
00000200: dec8 70bd 0046 cfbc 1b89 0d3e f6bb b4bd
00000210: d922 f3bd 44d9 813d 97d6 36bd 7ed6 f53c
00000220: b849 a23d ba65 ed3d 5605 103d 50af 0a3e
00000230: d572 073d 4b4f be3d 0cde bd3c 5b1e c5ba
00000240: b238 4e3d 9955 04be d288 00be d7a1 8a3d
00000250: 254d 57bd 12d1 a1bd fb14 523d 9798 24bc
00000260: 4ca3 abbc 4aa1 29bd 3a0d 10bd b84b fa3c
00000270: cf0d e63d f139 aebd 49e9 25bd 2147 25bc
00000280: 0a87 a2bc c6bc 883d d682 a1bd 15ef 313d
00000290: 2c04 543d 4538 90bb 156b 863d 89c9 9e3b
000002a0: 183b c13d fab0 9d3d 0d33 babd 8165 4d3c
000002b0: cbf3 c73d 448c 5e3d ec0c a03d 7ca6 cabd
000002c0: 73ca f13d daca 64bd 790a d7bc f2a6 fd3c
000002d0: 1fc8 84bd 5c34 9e3d 399e 03be a8fc 9dbb
000002e0: 7d1c 02be 79eb 053e aa53 debd a4eb f63d
000002f0: d52a 54bd 5e4c 703d f03d 0d3e 7ebf 6fbb
00000300: 38a5 a33d 40ed a83c 48fa 063d 656c d5bc
00000310: a5c2 0fbd 2ac6 7cbd 2302 d43d dbcb b4bc
00000320: 65a4 803d c707 273d 98b0 c5bd 16bd cebd
00000330: bba4 ab3d 85a9 f0bc d406 4d3c 9a61 d1bc
00000340: 9691 d73d 909c b9bd 3580 413d 2721 f23c
00000350: a254 103e 0aec aabc b7d1 b43d 6f03 073e
00000360: 0fe0 643c 3842 38bd fed5 cabc 9e4c 66bd
00000370: 4d26 0a3c 26f6 8a3d d08f 923d ec29 063e
00000380: 984a cabd e8df 75bd 6b47 1cbb ab19 7abd
00000390: 564e abbb 2373 ccbc 2261 3fbd cda9 0fbd
000003a0: dbd7 f8bc d1dc fc3c 8daf 213c cfee 7a3d
000003b0: 8414 723d 26c6 9e3d c3a1 653d 229f 73bd
000003c0: 1126 2b3d d57d 8f3d d7b3 9c3d 4654 d8bd
000003d0: 62aa 9c3d 5b69 69bd 2e76 61bd 8a1e 59bc
000003e0: 5722 3a3d b43a a63a 11b9 063e f172 7fbd
000003f0: d178 c7bd bc60 bbbd 892c d0bd 051f 4d3d

lstm.bias_hh_l0 f4 [256]
0.0039226743 0.13879141 -0.008458507 -0.022237223 0.090907514 0.04642261 0.10962139 -0.06607646
-0.023395313 0.03804668 0.117298886 0.00888379 -0.06862364 0.021175781 0.1170406 0.0063441074
0.12897351 -0.007970058 -0.018646093 0.009910778 0.007526123 0.03751694 0.09343761 -0.057891537
0.08420924 0.003962247 -0.0633831 0.01508981 -0.030170623 -0.015199951 0.008129406 0.070157535
0.007618399 0.09637301 0.0048595658 0.038163878 0.11843237 0.013638157 -0.066493735 0.076015905
0.11003732 0.04592802 0.022717962 0.12293254 -0.08841212 -0.032009427 0.07908411 -0.077744156
0.11720006 0.09814812 -0.0035692106 -0.075689256 -0.04127976 -0.08967977 0.06375518 0.051607843
-0.11128487 -0.028799342 0.06895906 0.08986612 0.043737218 0.09056214 0.10173531 -0.06276852
-0.09916842 0.013453829 0.05534384 -0.087675326 0.093899235 -0.018834544 0.07423814 -0.11068129
0.102474585 0.0026957437 0.08246199 -0.034644663 0.07333024 -0.07478681 -0.051225416 -0.009755277
0.11401379 0.09833321 -0.04796875 0.021762967 0.09786361 0.11283609 -0.098530345 0.07469972
0.08859054 0.027075801 -0.06363212 0.026286257 0.0061726705 -0.04054378 -0.029919257 -0.096344374
-0.016969318 -0.020946585 0.037624773 -0.0779334 0.0041032676 -0.08979309 0.011326662 -0.05087926
0.09183253 -0.10661879 0.14462098 0.09503587 0.046599846 0.124288194 -0.09201171 0.015024261
0.10791564 -0.036672927 -0.011851532 -0.061868567 -0.064702705 -0.04918757 0.039083645 0.13607925
0.034740936 0.016682694 0.017943634 -0.038437743 0.08407106 -0.08835154 0.08243173 -0.051773094
-0.0056500244 0.026538447 0.14222635 -0.023440225 -0.11140799 -0.0066203848 0.12012575 -0.10146533
-0.03530556 0.020012839 -0.059175976 0.08307485 -0.0817619 0.0829721 0.0532519 0.102059364
0.08580846 0.03466375 -0.1103141 0.07627612 -0.07048348 -0.016181746 -0.020267028 -0.05008047
0.11224023 0.035725657 0.07217173 0.029278636 -0.05150387 0.024874689 -0.12524855 -0.019310385
0.06698656 -0.010964553 0.0055164536 -0.046750855 0.080540575 -0.038519207 -0.022072699 -0.028642684
0.07831563 0.021584556 0.019715294 0.089301854 -0.06762097 -0.076507926 0.06465605 -0.062014025
0.12029534 -0.0067438795 0.13037296 -0.08347922 0.007300818 0.025568783 -0.0916799 -0.044950105
-0.008441303 0.037213493 0.035538323 -0.008560768 -0.06928156 -0.102475256 0.030855237 0.09050534
0.013742071 -0.05872693 -0.0056972853 -0.063163795 -0.079638556 0.13584368 -0.05126777 -0.06549349
-0.075671524 -0.044925906 0.0223636 0.0115866475 -0.04750471 -0.0024239407 -0.09147402 -0.05868416
0.13022317 -0.0007621922 0.04254942 -0.10453492 -0.075880736 -0.019677825 0.03385647 -0.06450067
-0.011015283 -0.045111697 0.015273704 0.018494757 0.11438118 -0.08641761 0.038852956 0.09917488
0.10843915 0.021821272 0.10057733 0.13830458 -0.05951722 0.12015802 0.02827491 0.07088753
0.007881092 -0.054631118 0.032754187 -0.03760681 0.11982236 -0.095663875 -0.09690572 -0.063359894
0.010984699 -0.026605338 0.0007584349 0.107690856 0.07529546 0.026095739 0.073194996 0.12083841
-0.057597045 -0.068414055 0.0059060226 -0.0011890843 -0.02877865 -0.03490952 -0.10992738 -0.10418189
00000000: c789 803b 561f 0e3e 8d95 0abc d62a b6bc
00000010: b82d ba3d a225 3e3d 2e81 e03d 1853 87bd
00000020: 87a7 bfbc d6d6 1b3d 663a f03d 518d 113c
00000030: 8d8a 8cbd d578 ad3c fbb2 ef3d 3be2 cf3b
00000040: a211 043e d994 02bc b1bf 98bc d160 223c
00000050: b29d f63b 5dab 193d 385c bf3d ad1f 6dbd
00000060: e575 ac3d bdd5 813b 00cf 81bd 403b 773c
00000070: 6228 f7bc 3709 79bc 3331 053c c1ae 8f3d
00000080: c3a3 f93b 365f c53d fe3c 9f3b ba51 1c3d
00000090: ac8c f23d 9472 5f3c de2d 88bd 3aae 9b3d
000000a0: 3f5b e13d 051f 3c3d 051b ba3c 0ec4 fb3d
000000b0: 6a11 b5bd 511c 03bd daf6 a13d 5438 9fbd
000000c0: 9606 f03d e201 c93d 6be9 69bb f802 9bbd
000000d0: f714 29bd 07aa b7bd 1392 823d bf62 533d
000000e0: 52e9 e3bd 99ec ebbc 683a 8d3d ba0b b83d
000000f0: cc25 333d a578 b93d 9a5a d03d c88c 80bd
00000100: d018 cbbd 736d 5c3c 39b0 623d 1f8f b3bd
00000110: 3e4e c03d e74a 9abc 2a0a 983d dfac e2bd
00000120: 32de d13d 13ab 303b d5e1 a83d 90e7 0dbd
00000130: 2a2e 963d d429 99bd bed1 51bd 99d4 1fbc
00000140: 1080 e93d ec62 c93d e17a 44bd 4048 b23c
00000150: b76c c83d 9c16 e73d 47ca c9bd 2bfc 983d
00000160: f56e b53d 12ce dd3c 8f51 82bd 4756 d73c
00000170: 1d44 ca3b 3c11 26bd 3b19 f5bc 3350 c5bd
00000180: 3d03 8bbc 2c98 abbc 6f1c 1a3d 8c9b 9fbd
00000190: b474 863b 71e5 b7bd 7793 393c c566 50bd
000001a0: b212 bc3d f45a dabd 8617 143e 2ba2 c23d
000001b0: 7bdf 3e3d cf8a fe3d a370 bcbd 5128 763c
000001c0: e002 dd3d 5a36 16bd ee2c 42bc e569 7dbd
000001d0: da82 84bd e878 49bd 2c16 203d 5c58 0b3e
000001e0: 834c 0e3d 25aa 883c 87fe 923c e570 1dbd
000001f0: 732d ac3d a7f1 b4bd f8d1 a83d 0610 54bd
00000200: d723 b9bb 2867 d93c c9a3 113e b705 c0bc
00000210: df29 e4bd d0ef d8bb 7d04 f63d 0ecd cfbd
00000220: 909c 10bd f7f1 a33c 8262 72bd 2623 aa3d
00000230: c872 a7bd 47ed a93d aa1e 5a3d 8004 d13d
00000240: 59bc af3d 94fb 0d3d 5cec e1bd a836 9c3d
00000250: a559 90bd 958f 84bc 0a07 a6bc 2e21 4dbd
00000260: 35de e53d 1155 123d c6ce 933d c0d9 ef3c
00000270: b9f5 52bd 01c6 cb3c 2841 00be d030 9ebc
00000280: 4030 893d aba4 33bc 5ec3 b43b d37d 3fbd
00000290: 75f2 a43d 51c6 1dbd ced1 b4bc 10a4 eabc
000002a0: f263 a03d 18d2 b03c f881 a13c e4e3 b63d
000002b0: dd7c 8abd 30b0 9cbd 646a 843d 6b02 7ebd
000002c0: 675d f63d c3fb dcbb 7d80 053e 27f7 aabd
000002d0: b33b ef3b a075 d13c acc2 bbbd 9a1d 38bd
000002e0: 644d 0abc 2d6d 183d a290 113d 7742 0cbc
000002f0: 7ee3 8dbd 8cde d1bd 1fc4 fc3c dd5a b93d
00000300: 6c26 613c a68b 70bd 4bb0 babb 055c 81bd
00000310: 8a19 a3bd 9b1a 0b3e 27fe 51bd 7321 86bd
00000320: acf9 9abd 3a04 38bd de33 b73c ecd5 3d3c
00000330: 4c94 42bd fada 1ebb bb56 bbbd cd5e 70bd
00000340: 3959 053e dacd 47ba 4d48 2e3d 6716 d6bd
00000350: 5c67 9bbd 6433 a1bc 15ad 0a3d ed18 84bd
00000360: 7279 34bc 0bc7 38bd 8f3e 7a3c 5182 973c
00000370: ae40 ea3d b7fb b0bd 4724 1f3d 331c cb3d
00000380: 5815 de3d 86c2 b23c 7dfb cd3d b79f 0d3e
00000390: 54c8 73bd 6815 f63d c9a0 e73c 7b2d 913d
000003a0: b21f 013c e1c4 5fbd 4129 063d 9909 1abd
000003b0: 6d65 f53d 6ceb c3bd 8276 c6bd d5c2 81bd
000003c0: 2bf9 333c 70f3 d9bc b4d1 463a 068d dc3d
000003d0: 8234 9a3d bbc6 d53c 42e7 953d 217a f73d
000003e0: e1ea 6bbd ab1c 8cbd 4f87 c13b 0cdb 9bba
000003f0: 34c1 ebbc 49fd 0ebd 9b21 e1bd 515d d5bd

lstm.weight_ih_l1 f4 [256, 64]
-0.09471144 -0.005807801 -0.051018868 -0.1271444 0.1346139 0.12963508 -0.10532488 0.04080095
0.062322367 -0.06497092 -0.08604884 -0.1436885 -0.031964768 0.14563575 -0.09698101 0.090335496
0.05210465 0.008610339 0.0034289467 -0.07297927 -0.013305537 0.14385903 -0.05429336 -0.036450453
-0.10498547 0.039717663 -0.092447035 0.081217945 -0.02505837 0.030982623 0.003106333 -0.13134685
-0.05819977 0.09826413 0.10698013 -0.08562091 -0.0937858 -0.0067376345 -0.05152901 0.10335426
0.079360105 -0.08546701 0.049936965 0.0188551 -0.015763918 0.100862905 0.07066725 -0.08965263
0.032243874 0.013546409 0.087386444 0.03827835 0.109164715 -0.0707655 0.013456908 -0.086531706
-0.10022388 -0.05348681 0.017992435 0.008577562 0.022449298 -0.053361874 -0.1504111 0.0018483264
0.038015414 0.06635189 -0.08822043 0.018315218 0.0073094745 -0.0006186746 -0.052586462 -0.071859896
-0.052584663 0.08591809 0.12043492 0.04124466 0.11266714 0.11849251 -0.10448568 -0.0018897979
0.014496179 -0.09072242 -0.003980992 0.05058021 0.1023964 -0.09462941 0.07433041 -0.0053891684
0.108473666 0.011156757 -0.048741646 -0.06391827 -0.015531111 0.060810436 -0.034402475 0.09538719
0.014411628 0.039337035 0.006371766 -0.11599609 0.011121351 -0.053852614 -0.0853943 -0.09880955
-0.0719773 -0.011296403 -0.107013285 -0.10351866 0.0023437361 -0.096790336 0.13772404 -0.05851718
0.089114524 -0.060904343 -0.034133654 -0.0018070291 -0.12388888 -0.10075623 -0.0013682018 0.12571838
-0.0057869228 -0.04407953 -0.12322093 -0.057557277 -0.003135097 0.02431646 0.07916304 -0.041029368
0.03928889 -0.13012142 0.1304337 -0.020517362 0.06329132 -0.02819543 0.11675382 0.096124366
-0.023665082 -0.076464765 -0.017544735 0.0035725385 0.097444974 -0.032797165 -0.04899694 -0.10091932
0.045756206 -0.1057435 0.08901818 -0.037563752 -0.12999535 -0.018924218 -0.03313002 -0.083186634
-0.033568364 0.04599577 0.05380647 0.021991853 0.06052738 -0.0631804 -0.116371535 0.10861649
-0.04808087 -0.095228426 0.091087535 0.04422434 0.0042701242 0.008953671 -0.102609225 -0.025753822
-0.0065052784 -0.06626718 -0.09167473 0.044057485 -0.08620718 -0.06285734 -0.024196785 0.0501123
0.11804458 0.06077795 0.05503674 0.09436181 0.04762343 -0.09677 -0.09492869 -0.005222023
0.018009316 0.0050796787 -0.07561374 -0.011805459 -0.1050433 -0.100333 0.10296945 0.112801276
-0.045964535 0.019267755 -0.04322725 -0.059525985 -0.08844987 0.07561987 0.07606048 0.071121454
0.08951596 0.0065588453 0.04088799 -0.06057562 0.023913877 -0.009549535 0.019042837 0.06820216
-0.07872828 -0.12394459 -0.07508208 0.069207765 -0.06390382 -0.074499995 0.05195487 -0.08465051
0.13816385 -0.069889985 0.103890486 -0.016007442 -0.081314944 -0.0073579415 -0.04237206 -0.07212684
0.025833396 0.0016737006 -0.07404196 0.092626885 0.08483236 0.031980235 0.03629054 -0.0010420164
-0.0074490528 0.042318247 0.10728293 0.036464326 -0.032280438 -0.074217506 -0.048042916 0.11225323
-0.10577609 -0.05622819 0.08006813 -0.017112255 -0.136384 -0.03397077 0.103793696 0.15434857
-0.117025584 -0.037129734 -0.06230184 0.053260945 -0.020130971 -0.12209421 -0.020577332 0.016993247
00000000: 12f8 c1bd 5e4f bebb 29f9 50bd 2432 02be
00000010: 3ad8 093e 0fbf 043e 92b4 d7bd e61e 273d
00000020: bd45 7f3d 790f 85bd 603a b0bd 1423 13be
00000030: 7ded 02bd 8a21 153e fb9d c6bd d101 b93d
00000040: af6b 553d 6112 0d3c 2eb8 603b 2876 95bd
00000050: 78ff 59bc c84f 133e b762 5ebd 124d 15bd
00000060: 9f02 d7bd fdae 223d df54 bdbd 9855 a63d
00000070: 3647 cdbc 45cf fd3c 9f93 4b3b ca7f 06be
00000080: e262 6ebd b43e c93d 6618 db3d 045a afbd
00000090: c512 c0bd 60c7 dcbb 1510 53bd 66ab d33d
000000a0: 8d87 a23d 5409 afbd b48a 4c3d 0376 9a3c
000000b0: 5523 81bc 3691 ce3d feb9 903d cc9b b7bd
000000c0: 2712 043d c2f1 5d3c aaf7 b23d c2c9 1c3d
000000d0: c091 df3d 81ed 90bd 5d7a 5c3c 8937 b1bd
000000e0: 2d42 cdbd fc14 5bbd df64 933c e788 0c3c
000000f0: 97e7 b73c fb91 5abd 5e05 1abe 8b43 f23a
00000100: 0db6 1b3d 80e3 873d eaac b4bd cc09 963c
00000110: 5184 ef3b 8d2e 22ba e764 57bd 482b 93bd
00000120: 0463 57bd d3f5 af3d 95a6 f63d 29f0 283d
00000130: 08be e63d 33ac f23d 97fc d5bd 18b3 f7ba
00000140: 6281 6d3c adcc b9bd fb72 82bb 322d 4f3d
00000150: 34b5 d13d 10cd c1bd 8b3a 983d 9f97 b0bb
00000160: 7127 de3d d5ca 363c 52a5 47bd 95e7 82bd
00000170: 3376 7ebc 5d14 793d 9ce9 0cbd 5c5a c33d
00000180: c01e 6c3c df1f 213d 3fca d03b 5c8f edbd
00000190: 5436 363c 8f94 5cbd 35e3 aebd a95c cabd
000001a0: d668 93bd 8c14 39bc c829 dbbd 9701 d4bd
000001b0: 5e99 193b 033a c6bd 8807 0d3e b6af 6fbd
000001c0: ad81 b63d d576 79bd bbcf 0bbd d6d9 ecba
000001d0: 74b9 fdbd 4859 cebd 3c55 b3ba 52bc 003e
000001e0: 3aa0 bdbb bd8c 34bd 415b fcbd 2ec1 6bbd
000001f0: 3376 4dbb 5033 c73c 3b20 a23d 690e 28bd
00000200: 63ed 203d 8d3e 05be 6990 053e 0714 a8bc
00000210: e19e 813d 1afa e6bc a01c ef3d dadc c43d
00000220: 46dd c1bc 8f99 9cbd fab9 8fbc 4021 6a3b
00000230: 3b91 c73d 5256 06bd 04b1 48bd caae cebd
00000240: dc6a 3b3d 0c90 d8bd 2a4f b63d 73dc 19bd
00000250: 801d 05be f606 9bbc 58b3 07bd c15d aabd
00000260: fb7e 09bd 0f66 3c3d 2c64 5c3d 4228 b43c
00000270: 8feb 773d ba64 81bd 3354 eebd 5372 de3d
00000280: 72f0 44bd 1f07 c3bd 1a8c ba3d 9524 353d
00000290: 66ec 8b3b 6bb2 123c c924 d2bd aef9 d2bc
000002a0: 3b2a d5bb 16b7 87bd f6bf bbbd 9f75 343d
000002b0: 648d b0bd 59bb 80bd 5638 c6bc 8e42 4d3d
000002c0: 5bc1 f13d 4df2 783d 346e 613d c440 c13d
000002d0: c910 433d 5a2f c6bd f969 c2bd 811d abbb
000002e0: 4688 933c 6f73 a63b 60db 9abd af6b 41bc
000002f0: f120 d7bd 637b cdbd a6e1 d23d 5b04 e73d
00000300: 4f45 3cbd 69d7 9d3c 0f0f 31bd 85d1 73bd
00000310: 3525 b5bd 97de 9a3d 99c5 9b3d 20a8 913d
00000320: 2554 b73d 95eb d63b 2a7a 273d 241e 78bd
00000330: 09e7 c33c a775 1cbc b9ff 9b3c 93ad 8b3d
00000340: 4b3c a1bd a9d6 fdbd a2c4 99bd cdbc 8d3d
00000350: 02e0 82bd 7493 98bd a1ce 543d 3f5d adbd
00000360: d37a 0d3e 7b22 8fbd 89c4 d43d 0a22 83bc
00000370: 7388 a6bd e31a f1bb 538e 2dbd 3db7 93bd
00000380: 8fa0 d33c 1360 db3a 50a3 97bd 2ab3 bd3d
00000390: 97bc ad3d b5fd 023d 64a5 143d 4594 88ba
000003a0: 2f17 f4bb e655 2d3d 27b7 db3d 9e5b 153d
000003b0: 7e38 04bd 59ff 97bd a6c8 44bd 05e5 e53d
000003c0: 22a1 d8bd 884f 66bd c2fa a33d 002f 8cbc
000003d0: 3fa8 0bbe ef24 0bbd ca91 d43d 8d0d 1e3e
000003e0: 1cab efbd 5915 18bd 3730 7fbd 2628 5a3d
000003f0: b5e9 a4bc 870c fabd cb91 a8bc 6c35 8b3c

lstm.weight_hh_l1 f4 [256, 64]
0.06500353 0.085353516 0.023602108 0.094738744 -0.013226879 0.049378075 -0.065621845 -0.11815704
0.11378229 0.010005311 0.02841964 0.007482858 -0.029235044 0.121265724 -0.045061793 0.082489
0.09599358 -0.13774818 -0.06454757 0.11188454 -0.080771685 0.0060739596 0.12600563 -0.031517297
-0.026862988 -0.06694712 0.13053262 0.10647765 0.10434365 -0.045359265 -0.028348852 0.07401501
-0.13796262 -0.12657559 0.04343342 -0.049259156 0.08800123 0.02759659 -0.11145224 0.055973507
0.063745245 0.12646416 -0.017459432 0.10556847 0.12159335 -0.07360519 -0.015831275 0.049893428
-0.09287843 -0.0424408 -0.0015528442 0.031469323 -0.00064544874 -0.036506478 0.10133595 -0.116918415
0.06282578 0.104920655 0.079908326 -0.043211784 -0.09530792 0.084269136 0.0054956945 -0.087958835
0.02727888 -0.11342963 -0.09156099 0.019145455 -0.04332266 0.047520854 -0.06291699 -0.016862843
0.11040657 0.12005545 -0.034927502 0.03832128 -0.040732585 0.113503836 -0.023762444 0.024308277
-0.106239475 0.07219237 -0.04303561 0.061673813 -0.07087149 -0.040563185 0.08440383 -0.009622855
0.049684342 0.0038982665 0.038239505 -0.0197244 0.07057713 -0.049772896 -0.0116445115 0.045226287
0.042722635 -0.053070214 0.022450618 0.085848235 0.08672195 0.091108344 0.0016156218 -0.0407485
-0.14350897 0.023719868 -0.09428663 0.06453378 0.022835387 0.03520399 0.00043403168 -0.059181727
0.075142436 0.020923866 0.024245588 0.045677535 0.13627143 0.11090119 0.08340886 -0.05425368
-0.054093476 -0.124245174 0.011357847 0.07899061 0.03735381 -0.0008523301 0.042331826 0.083146
0.0636447 -0.046844598 -0.07500571 -0.12274901 -0.07405036 -0.14100924 0.012809745 0.09721571
-0.12786867 0.013205542 0.07372646 0.04798335 -0.14199066 -0.09362228 -0.06384879 0.014570245
0.0806016 0.03530297 -0.07645039 0.051501743 0.09603084 -0.09058496 -0.11239646 0.027882926
0.009755431 -0.08227865 -0.006316583 0.07515262 -0.060281597 0.002302731 0.1447996 0.14461133
-0.0021167467 -0.05807673 -0.08665171 -0.07774773 -0.006017687 0.100009635 0.15039358 0.08523602
0.078280546 0.042001773 0.0030294186 0.048894126 0.04509806 -0.12617941 -0.07818309 -0.041351806
0.14723451 -0.04686852 -0.103186615 -0.089497216 0.03885633 0.13490526 -0.06468455 0.01998241
-0.116393335 -0.12994851 -0.007062409 0.03361946 0.10452385 -0.01845412 -0.0030841045 0.0035489623
-0.125347 0.024436342 -0.003364415 0.07711294 0.07672355 0.03649925 -0.008080622 -0.095230035
-0.056257453 0.040379047 -0.06557126 0.0475556 0.032016747 -0.117138244 0.049696658 0.03404608
-0.008315146 0.12613134 0.070073254 -0.12076009 0.08642972 -0.02557596 0.028562695 -0.026512967
-0.01569998 0.048016265 -0.13566087 -0.019155169 -0.0893041 0.16102143 -0.04467475 0.079441175
0.058186416 0.1312145 0.0060275397 0.035314135 -0.045396898 -0.14521673 0.14645728 0.017974127
0.07239895 -0.12043576 -0.111245334 -0.06186173 -0.1520717 -0.15579088 0.042958204 0.042666696
-0.0009913616 0.036156222 0.089361444 -0.12096227 0.0807129 -0.08537092 0.044123042 0.06616416
0.03310111 0.020912865 0.026146935 -0.022665225 0.048358772 0.049593832 0.07770576 0.0026492483
00000000: 9220 853d d3cd ae3d 3559 c13c 6306 c23d
00000010: 8db5 58bc aa40 4a3d bf64 86bd 51fc f1bd
00000020: b006 e93d 51ed 233c 4ed0 e83c c332 f53b
00000030: 557e efbc 2a5a f83d b792 38bd feef a83d
00000040: 4898 c43d dc0d 0dbe 8431 84bd b923 e53d
00000050: a06b a5bd 1108 c73b 9f07 013e 4818 01bd
00000060: c50f dcbc 921b 89bd 58aa 053e f410 da3d
00000070: 20b2 d53d a3ca 39bd da3b e8bc 2e95 973d
00000080: 1346 0dbe 089d 01be 3ee7 313d f8c3 49bd
00000090: fd39 b43d 3e12 e23c 1241 e4bd 7a44 653d
000000a0: de8c 823d d27f 013e 1507 8fbc 4834 d83d
000000b0: ef05 f93d 51be 96bd 97b0 81bc 0d5d 4c3d
000000c0: 0c37 bebd 68d6 2dbd ce88 cbba fae5 003d
000000d0: 5533 29ba d187 15bd 3989 cf3d ec72 efbd
000000e0: cdaa 803d a4e0 d63d faa6 a33d d7fe 30bd
000000f0: cc30 c3bd 4c95 ac3d 3a15 b43b c323 b4bd
00000100: f577 df3c cb4d e8bd 5484 bbbd eed6 9c3c
00000110: 1a73 31bd 3aa5 423d 9fda 80bd f223 8abc
00000120: d71c e23d a2df f53d 2410 0fbd c6f6 1c3d
00000130: 36d7 26bd b374 e83d 75a9 c2bc 2722 c73c
00000140: 1594 d9bd 98d9 933d 1c46 30bd ae9d 7c3d
00000150: 1225 91bd 9525 26bd eadb ac3d 2ea9 1dbc
00000160: cf81 4b3d 0f7a 7f3b 07a1 1c3d 1195 a1bc
00000170: be8a 903d aade 4bbd 9fc8 3ebc 333f 393d
00000180: eefd 2e3d 2760 59bd 5cea b73c 33d1 af3d
00000190: 479b b13d 0397 ba3d 46c3 d33a e6e7 26bd
000001a0: 04f4 12be 2b50 c23c 5919 c1bd 492a 843d
000001b0: 4711 bb3c 0f32 103d bf8e e339 8a68 72bd
000001c0: 47e4 993d 8768 ab3c af9e c63c 5e18 3b3d
000001d0: bd8a 0b3e 2a20 e33d 44d2 aa3d 1b39 5ebd
000001e0: 1f91 5dbd 4174 febd 4316 3a3c d4c5 a13d
000001f0: 4f00 193d e86e 5fba 2364 2d3d 7348 aa3d
00000200: 2758 823d 1fe0 3fbd 989c 99bd d563 fbbd
00000210: b7a7 97bd ba64 10be f7df 513c 0819 c73d
00000220: 01f0 02be 0f5c 583c e6fd 963d 308a 443d
00000230: 0066 11be 0abd bfbd 28c3 82bd 09b8 6e3c
00000240: 7412 a53d d999 103d 0692 9cbd 7ef3 523d
00000250: d1ab c43d 9c84 b9bd 1d30 e6bd bc6a e43c
00000260: 3ed5 1f3c b581 a8bd 57fb cebb 9ee9 993d
00000270: d6e9 76bd 6ae9 163b 5946 143e fe14 143e
00000280: 1eb9 0abb dee1 6dbd 7476 b1bd 343a 9fbd
00000290: 0430 c5bb dad1 cc3d c600 1a3e 3990 ae3d
000002a0: 8d51 a03d 0d0a 2c3d 3689 463b 3545 483d
000002b0: beb8 383d 2d35 01be 751e a0bd 8360 29bd
000002c0: a5c4 163e 35f9 3fbd 8153 d3bd 514a b7bd
000002d0: d127 1f3d 9b24 0a3e 5579 84bd 27b2 a33c
000002e0: a15f eebd 3911 05be c86b e7bb 8fb4 093d
000002f0: 9a10 d63d 182d 97bc b01e 4abb b595 683b
00000300: f75a 00be b92e c83c 847d 5cbb 64ed 9d3d
00000310: 3d21 9d3d 3d80 153d 9664 04bc f707 c3bd
00000320: 376e 66bd 8064 253d 3a4a 86bd a9c9 423d
00000330: fe23 033d 2de6 efbd b98e 4b3d e773 0b3d
00000340: 403c 08bc 9328 013e 9182 8f3d 1151 f7bd
00000350: 1102 b13d ad84 d1bc 50fc e93c b931 d9bc
00000360: 3f9d 80bc b4ac 443d afea 0abe 4deb 9cbc
00000370: 11e5 b6bd cde2 243e dffc 36bd 0eb2 a23d
00000380: e154 6e3d 185d 063e ab82 c53b 8ea5 103d
00000390: 19f2 39bd b2b3 14be e6f8 153e 7a3e 933c
000003a0: e745 943d 06a7 f6bd 98d4 e3bd ba62 7dbd
000003b0: afb8 1bbe a587 1fbe f1f4 2f3d 46c3 2e3d
000003c0: 93f0 81ba 8c18 143d 2203 b73d 11bb f7bd
000003d0: ce4c a53d f3d6 aebd 5dba 343d 1381 873d
000003e0: 0895 073d 7551 ab3c 1932 d63c 6cac b9bc
000003f0: d913 463d e722 4b3d 3324 9f3d 039f 2d3b

lstm.bias_ih_l1 f4 [256]
0.08196852 -0.104120746 0.0315026 -0.08689201 -0.066147715 -0.006538901 -0.02119227 0.09754186
0.101830035 -0.092398435 -0.0044593103 -0.011415783 -0.039325647 0.07735855 0.07438914 -0.074198574
0.13564573 0.09080792 -0.04290907 0.088541575 -0.078542255 0.074083515 0.04236053 -0.0025335767
0.12162094 0.051283896 -0.08714182 -0.03707401 0.051393986 0.069170065 -0.07165699 0.08393012
-0.06479672 -0.075223796 -0.09651102 -0.021237528 0.1053204 0.016218679 -0.04840702 -0.011350554
0.08443369 -0.072757505 0.0044858167 -0.03622436 0.08551625 0.06657782 0.029213043 -0.025783628
-0.1028216 -0.052263383 -0.06340128 0.018449008 0.09094675 0.042833272 0.10105593 0.116541006
-0.05632787 -0.10663278 0.08706867 0.11543179 0.061738577 0.061711162 0.08843055 0.1432987
0.11137254 -0.038599018 -0.06765061 0.059647143 0.0028566115 -0.10360019 0.09825351 -0.041716855
0.01200962 0.14616853 0.131018 -0.08028263 -0.09973293 -0.07962496 -0.0794355 -0.028745094
-0.02662063 0.0053401175 -0.10024294 -0.05441523 0.088800095 -0.0059533017 0.0896832 0.0734499
0.11103333 0.040607456 0.14185344 0.12751248 0.09995089 0.077146955 0.042605594 -0.0031105939
-0.059182767 0.034040388 0.08555072 0.037725218 0.06867071 0.020008376 -0.044977255 0.13928348
0.12486843 -0.048652876 0.086452365 0.042457875 0.025734916 0.01951756 0.10471609 0.02320253
0.025116311 -0.02946305 0.059565775 0.021555323 0.14278251 -0.079679914 0.11499921 0.024910193
0.11495331 0.06447702 0.08577634 0.11186488 0.0854378 -0.06701183 -0.014898886 0.05370739
0.04273226 -0.021514416 -0.022226548 -0.032831814 -0.078006335 0.036740173 -0.048660003 -0.07249578
-0.07674009 -0.07753997 -0.02749847 0.1251292 0.0944418 -0.041485894 -0.13209224 -0.11288399
-0.030062605 0.03870308 0.016601318 -0.021251194 -0.0115183955 0.061086986 -0.08471755 0.04469081
-0.10431986 0.035679903 -0.050808676 -0.08163016 0.06879582 -0.10950626 -0.030403914 0.077853486
-0.11771643 0.014553179 0.09654969 -0.088380806 0.0015694668 -0.09451338 0.06197429 -0.008029793
-0.10864135 0.06990278 0.09719076 0.07328643 0.011288006 -0.04679223 -0.0198289 -0.081323355
0.10478811 -0.04154309 -0.09317334 -0.12656595 0.06420209 -0.10598646 0.030951943 -0.026399363
0.06608054 0.03597573 0.12904426 -0.13130607 -0.015350924 0.013851116 0.08077679 -0.11976133
-0.0028737697 -0.09302227 -0.08613669 0.12670626 -0.077628665 -0.07937775 0.12649381 0.07292028
0.038628347 0.13523862 0.07546972 0.013376388 0.060649764 -0.04159083 0.08449675 0.02016057
0.07705358 0.03902658 0.100527085 -0.07155672 0.069807224 0.028570885 0.06894429 -0.023751074
-0.020336516 0.07906151 0.0014165487 0.03343732 -0.0018102173 -0.06381248 0.05797038 -0.0021210779
0.099186674 -0.018806916 -0.07423983 0.0640597 0.12591246 -0.03194553 -0.059751306 0.13807231
-0.09543454 0.14456056 0.07569204 -0.024599869 -0.048686713 0.11341491 -0.08503231 -0.03018397
-0.014800793 0.02638796 0.04028689 0.041451175 -0.013040187 0.041093882 -0.019353867 0.03499342
-0.013149748 0.118268445 -0.07233433 0.102887444 0.081069835 0.06495918 0.06266298 0.104887284
00000000: 1ddf a73d 423d d5bd df08 013d 70f4 b1bd
00000010: 7478 87bd 4744 d6bb 699b adbc 07c4 c73d
00000020: 448c d03d 643b bdbd 681f 92bb 4409 3bbc
00000030: ee13 21bd 296e 9e3d 5559 983d 6cf5 97bd
00000040: b7e6 0a3e 81f9 b93d 6cc1 2fbd 4955 b53d
00000050: c3da a0bd 19b9 973d 3c82 2d3d 5d0a 26bb
00000060: 6614 f93d 100f 523d 6977 b2bd ebda 17bd
00000070: 8082 523d 09a9 8d3d e6c0 92bd 8ee3 ab3d
00000080: 25b4 84bd ef0e 9abd 92a7 c5bd 53fa adbc
00000090: 39b2 d73d 09dd 843c 7046 46bd adf7 39bc
000000a0: 92eb ac3d e301 95bd c2fd 923b ff5f 14bd
000000b0: 2523 af3d f459 883d 3150 ef3c 3038 d3bc
000000c0: 2294 d2bd 2112 56bd 88d8 81bd 6022 973c
000000d0: 4a42 ba3d f171 2f3d 69f6 ce3d 0dad ee3d
000000e0: 0db8 66bd 4962 dabd 0f51 b23d 8167 ec3d
000000f0: 97e1 7c3d d8c4 7c3d 141b b53d e5bc 123e
00000100: 4917 e43d 011a 1ebd 678c 8abd 9050 743d
00000110: fd35 3b3b 562c d4bd 2339 c93d 4bdf 2abd
00000120: ffc3 443c 34ad 153e 9529 063e 386b a4bd
00000130: c740 ccbd 6912 a3bd 14af a2bd d57a ebbc
00000140: 8213 dabc 27fc ae3b 2c4c cdbd 81e2 5ebd
00000150: d3dc b53d ea13 c3bb d3ab b73d e76c 963d
00000160: 7165 e33d 0154 263d 0742 113e a292 023e
00000170: 0db3 cc3d 39ff 9d3d 3483 2e3d 1bdb 4bbb
00000180: a169 72bd ef6d 0b3d 3735 af3d c285 1a3d
00000190: 3ba3 8c3d 9be8 a33c 123a 38bd 54a0 0e3e
000001a0: 05bb ff3d 3d48 47bd f00d b13d 4fe8 2d3d
000001b0: 08d2 d23c 4ae3 9f3c 6475 d63d 3b13 be3c
000001c0: b9c0 cd3c 7f5c f1bc 3efb 733d ca94 b03c
000001d0: 9435 123e 392f a3bd b584 eb3d 7610 cc3c
000001e0: a46c eb3d 870c 843d 81ab af3d 6a19 e53d
000001f0: 03fa ae3d 803d 89bd 751a 74bc 48fc 5b3d
00000200: 0608 2f3d 003f b0bc 7314 b6bc a77a 06bd
00000210: c9c1 9fbd dd7c 163d b64f 47bd ab78 94bd
00000220: e929 9dbd 47cd 9ebd 7944 e1bc de21 003e
00000230: b46a c13d 1ded 29bd 3043 07be b92f e7bd
00000240: da45 f6bc 1f87 1e3d 7dff 873c fc16 aebc
00000250: a7b7 3cbc 5936 7a3d 6580 adbd b60d 373d
00000260: a7a5 d5bd 1725 123d c21c 50bd b72d a7bd
00000270: d3e4 8c3d d144 e0bd a111 f9bc a671 9f3d
00000280: 5015 f1bd 7570 6e3c d8bb c53d ff00 b5bd
00000290: 91b6 cd3a 3b90 c1bd c1d8 7d3d 658f 03bc
000002a0: 5b7f debd 3029 8f3d f30b c73d 3217 963d
000002b0: 54f1 383c 36a9 3fbd 3870 a2bc dc8c a6bd
000002c0: 269b d63d 1629 2abd aad1 bebd 819a 01be
000002d0: 637c 833d 6e0f d9bd ee8e fd3c 7a43 d8bc
000002e0: 3c55 873d 495b 133d 2e24 043e 1975 06be
000002f0: 7182 7bbc cbef 623c 4d6e a53d 6e45 f5bd
00000300: db55 3cbb 7682 bebd 6f68 b0bd 49bf 013e
00000310: c7fb 9ebd cd90 a2bd 9887 013e 3a57 953d
00000320: c238 1e3d fe7b 0a3e de8f 9a3d a328 5b3c
00000330: e36b 783d 255b 2abd a20c ad3d c827 a53c
00000340: 44ce 9d3d 56da 1f3d 25e1 cd3d 548c 92bd
00000350: 17f7 8e3d 7d0d ea3c aa32 8d3d 9d91 c2bc
00000360: c498 a6bc 00eb a13d 7dab b93a 92f5 083d
00000370: d044 edba 1eb0 82bd 5972 6d3d c801 0bbb
00000380: 6222 cb3d f610 9abc 0d0b 98bd bb31 833d
00000390: 32ef 003e 51d9 02bd c9bd 74bd d462 0d3e
000003a0: 2f73 c3bd af07 143e 6e04 9b3d aa85 c9bc
000003b0: b86b 47bd 1446 e83d 6b25 aebd 6044 f7bc
000003c0: 067f 72bc 902b d83c de03 253d b5c8 293d
000003d0: 82a6 55bc 0f52 283d 008c 9ebc 4355 0f3d
000003e0: 0a72 57bc ba36 f23d 0524 94bd a7b6 d23d
000003f0: f107 a63d 5209 853d 7355 803d 25cf d63d
